Linear_variable/with_background_info/weights_4actions_100000_0.001_0.99_128_True_0.35.pt (torch, 21547 bytes, 6 tensors)

l1.weight f4 [64, 5]
-2.302918 0.38984478 -0.025235234 -1.0157592 0.7863768 -1.0076282 0.00023334567 0.99621344
0.13123797 0.21463792 -2.4505012 2.2068663 -1.5266399 3.1756365 -1.8137474 8.427452
0.29566666 10.796637 2.5315156 -1.9713255 3.9224663 2.344035 2.7563171 -0.71920156
-3.9127011 0.15451086 -0.42112094 -0.58556116 -0.22837453 0.12978706 7.8357754 -3.0395348
4.299173 4.16878 -10.444817 2.2787678 0.06918748 1.9568605 1.4658163 -10.805248
-0.7484727 1.880875 -0.31513497 -1.2114385 4.4155993 -1.0017982 -0.7662063 -0.41892317
1.9808816 -6.5670776 -6.9278407 -3.1642275 -7.781704 0.94323325 -2.351601 1.661836
0.42071277 2.590376 0.5714593 -1.4951454 1.6131423 -2.1184957 1.5210477 -2.6348891
1.4912839 2.3218644 -1.2145536 -2.4850557 0.9949894 -0.5119644 8.026481 0.9918557
1.4887509 0.09248271 -3.351121 -1.2838107 -0.32463747 1.934477 0.49337238 -6.95527
0.4752142 1.0853916 -2.9547079 -2.0797489 -8.263719 1.9912974 -0.2136867 2.290612
1.2204943 0.7316626 -6.514759 0.46710196 0.60436875 -2.683261 -6.9546967 2.1150436
1.6095926 3.5102186 -0.1404742 -4.6037517 0.6588416 -0.23650283 0.039740115 0.59205836
0.06801919 2.4119697 -4.3312507 -0.08622317 4.8920054 3.6817415 -2.4279044 -2.0363023
-1.4895064 1.0548792 -5.396305 -0.92637205 -0.19945408 -0.9977206 0.41576812 -0.34855297
-3.4871802 -5.1428857 -2.3969705 -2.2443662 -2.1772099 -6.8308396 0.52770567 -4.9845715
-2.0259552 1.9532874 2.9074755 -8.142566 1.8289138 9.016112 -10.508598 -1.8611549
3.7554162 0.47545275 -3.7639618 6.344434 -6.055916 -4.074272 -7.3400197 -0.34477305
-0.2838947 -4.2125764 -8.666274 -7.925216 5.608649 7.1701164 0.78584486 -6.101413
-10.95983 4.834934 8.63594 -7.735753 -1.1986753 -4.8121123 -3.5933895 -6.7056894
3.5126195 0.509318 1.3787026 -0.11480991 -0.13686627 0.052535053 0.067910984 -0.12064319
0.8020849 0.08896722 1.023886 1.7644321 3.3549652 -1.813046 15.6373415 0.12234069
0.80100906 0.8338136 0.5181774 0.7259304 0.2981458 -0.36467257 0.31543767 0.5800516
-0.047571197 -5.521944 -2.2855332 -6.0550385 -0.27669033 10.895545 13.247058 -3.7194228
8.511512 7.849816 -6.8114185 -0.538281 -1.0407608 -0.503553 -0.31102186 0.00018845685
-9.627905 -2.305563 -7.442135 -0.5753944 -1.4357178 -1.0924286 1.8225712 1.4656578
-1.4439938 5.679661 -3.2708995 -2.8121793 -5.0346346 0.9694232 1.634498 -1.0229224
-0.04017954 1.3224093 -0.987605 4.2518306 -0.8351006 0.38226265 -1.3009676 -0.4699206
-0.03125934 3.102891 0.14449282 2.4809282 0.08061403 2.63766 -1.379173 -7.6638274
-0.08283966 7.663893 1.8780307 -9.726675 2.7137303 -6.3981094 -5.9575963 -12.265634
-23.103289 -6.6474724 -20.052128 -0.10920024 5.43258 8.8983 10.453609 18.304756
-2.1345348 10.23025 11.786427 -1.0779183 13.65633 8.767344 -10.265954 2.8123822
00000000: 0263 13c0 bc99 c73e 1fba cebc 6604 82bf
00000010: fd4f 493f f6f9 80bf 40ae 7439 d807 7f3f
00000020: 3f63 063e 0bca 5b3e 03d5 1cc0 4c3d 0d40
00000030: f068 c3bf a13d 4b40 e028 e8bf d8d6 0641
00000040: 9f61 973e 06bf 2c41 5a04 2240 6554 fcbf
00000050: b009 7b40 ab04 1640 8067 3040 981d 38bf
00000060: b269 7ac0 1838 1e3e 2a9d d7be 56e7 15bf
00000070: 03db 69be e6e6 043e acbe fa40 bd87 42c0
00000080: d392 8940 a566 8540 f81d 27c1 55d7 1140
00000090: 2ab2 8d3d 687a fa3f de9f bb3f 4ce2 2cc1
000000a0: e89b 3fbf 83c0 f03f 5f59 a1be 6b10 9bbf
000000b0: 974c 8d40 ec3a 80bf 1926 44bf 197d d6be
000000c0: 878d fd3f 8025 d2c0 dfb0 ddc0 b482 4ac0
000000d0: b803 f9c0 bc77 713f a180 16c0 0bb7 d43f
000000e0: aa67 d73e b8c8 2540 284b 123f ed60 bfbf
000000f0: 727b ce3f 6f95 07c0 b1b1 c23f 06a2 28c0
00000100: 64e2 be3f 6d99 1440 7e76 9bbf 270b 1fc0
00000110: a0b7 7e3f 1910 03bf 776c 0041 41ea 7d3f
00000120: 648f be3f 9367 bd3d c478 56c0 e953 a4bf
00000130: e236 a6be f19c f73f 4e9b fc3e 9291 dec0
00000140: 474f f33e 1dee 8a3f ef19 3dc0 9b1a 05c0
00000150: 3138 04c1 d5e2 fe3f b0d0 5abe 6399 1240
00000160: 2839 9c3f 3d4e 3b3f e878 d0c0 fd27 ef3e
00000170: e9b7 1a3f 8cba 2bc0 e08c dec0 e05c 0740
00000180: 2107 ce3f 6ca7 6040 78d8 0fbe ef51 93c0
00000190: d8a9 283f cc2d 72be 88c6 223d 2391 173f
000001a0: a54d 8b3d b65d 1a40 9b99 8ac0 c695 b0bd
000001b0: 4f8b 9c40 a7a1 6b40 c962 1bc0 c752 02c0
000001c0: 25a8 bebf 4806 873f 88ae acc0 b826 6dbf
000001d0: b13d 4cbe 9e6a 7fbf 8fdf d43e 8975 b2be
000001e0: f62d 5fc0 8592 a4c0 f767 19c0 b2a3 0fc0
000001f0: 6857 0bc0 3d96 dac0 b817 073f 9c81 9fc0
00000200: 40a9 01c0 5205 fa3f 1414 3a40 f347 02c1
00000210: d919 ea3f ff41 1041 3823 28c1 533a eebf
00000220: bd58 7040 8b6e f33e c0e4 70c0 9a05 cb40
00000230: 10ca c1c0 7060 82c0 71e1 eac0 1886 b0be
00000240: a55a 91be 6dcd 86c0 0fa9 0ac1 5f9b fdc0
00000250: 0d7a b340 9871 e540 212d 493f c63e c3c0
00000260: 775b 2fc1 c8b7 9a40 cf2c 0a41 4a8b f7c0
00000270: 316e 99bf d3fc 99c0 18fa 65c0 0295 d6c0
00000280: c2ce 6040 aa62 023f 5479 b03f 7521 ebbd
00000290: ac26 0cbe ff2e 573d ea14 8b3d c713 f7bd
000002a0: 7055 4d3f 7234 b63d b20e 833f e9d8 e13f
000002b0: c0b7 5640 e411 e8bf 8d32 7a41 c18d fa3d
000002c0: ee0e 4d3f cf74 553f 46a7 043f 93d6 393f
000002d0: 91a6 983e 5db6 babe 0c81 a13e 437e 143f
000002e0: 04da 42bd c4b3 b0c0 2d46 12c0 e0c2 c1c0
000002f0: 5baa 8dbe 2754 2e41 f3f3 5341 060b 6ec0
00000300: 272f 0841 b131 fb40 24f7 d9c0 c9cc 09bf
00000310: a637 85bf d9e8 00bf 423e 9fbe 809c 4539
00000320: e60b 1ac1 588e 13c0 f825 eec0 0c4d 13bf
00000330: 9ac5 b7bf b3d4 8bbf 034a e93f ad9a bb3f
00000340: cad4 b8bf c8bf b540 6b56 51c0 bffa 33c0
00000350: ba1b a1c0 1e2c 783f 3b37 d13f 1fef 82bf
00000360: 4d93 24bd b544 a93f aed3 7cbf ff0e 8840
00000370: 27c9 55bf eeb7 c33e 1b86 a6bf 6f99 f0be
00000380: cb09 00bd c495 4640 edf5 133e 87c7 1e40
00000390: f818 a53d 6ccf 2840 be88 b0bf 133e f5c0
000003a0: d7a7 a9bd 9d3e f540 4f63 f03f 76a0 1bc1
000003b0: c2ad 2d40 50bd ccc0 a1a4 bec0 0940 44c1
000003c0: 89d3 b8c1 18b8 d4c0 c26a a0c1 60a4 dfbd
000003d0: b2d7 ad40 705f 0e41 fc41 2741 2470 9241
000003e0: 389c 08c0 1baf 2341 3495 3c41 3af9 89bf
000003f0: 5480 5a41 0b47 0c41 5941 24c1 12fe 3340

l1.bias f4 [64]
17.163088 -18.994598 10.490047 0.33158553 6.3029857 -16.548306 45.398155 2.4582605
20.48172 -49.438835 -10.386703 21.601742 -8.555808 3.0208044 -14.074159 41.953255
46.452076 -18.174738 20.991388 -7.74072 -10.661013 4.7317414 1.0361103 -17.586088
10.490054 -10.899108 68.55012 15.2659025 0.8694126 24.36227 5.5781865 0.88727885
35.895546 -11.520347 7.2543283 45.430832 -8.892427 9.110166 7.876814 -11.996662
7.38256 -41.878845 -13.29053 22.347973 37.970142 -14.234256 12.621388 33.714314
17.45908 24.151415 31.611034 14.395646 22.43281 -15.273612 -19.15547 24.35994
-5.7101445 -9.616344 19.502409 5.913663 1.0333073 -2.1209812 -7.0319977 6.439031
00000000: 014e 8941 f0f4 97c1 3cd7 2741 94c5 a93e
00000010: 0fb2 c940 ee62 84c1 b697 3542 2454 1d40
00000020: 90da a341 5ec1 45c2 ef2f 26c1 5ed0 ac41
00000030: 97e4 08c1 dc54 4140 c12f 61c1 22d0 2742
00000040: edce 3942 dd65 91c1 5dee a741 fab3 f7c0
00000050: 8293 2ac1 6d6a 9740 439f 843f 4fb0 8cc1
00000060: 43d7 2741 bf62 2ec1 a919 8942 2341 7441
00000070: d391 5e3f eee5 c241 8180 b240 b524 633f
00000080: 0a95 0f42 5753 38c1 7523 e840 2cb9 3542
00000090: 6247 0ec1 3dc3 1141 dc0e fc40 54f2 3fc1
000000a0: ee3d ec40 f083 27c2 03a6 54c1 a6c8 b241
000000b0: 6de1 1742 83bf 63c1 35f1 4941 75db 0642
000000c0: 32ac 8b41 1936 c141 66e3 fc41 9154 6641
000000d0: 6576 b341 b760 74c1 673e 99c1 28e1 c241
000000e0: 81b9 b6c0 8cdc 19c1 ef04 9c41 ba3c bd40
000000f0: 6a43 843f 28be 07c0 2006 e1c0 8b0c ce40

l2.weight f4 [64, 64]
-0.005046685 -0.1267174 -0.12544192 -0.013981242 0.009969342 -0.045398716 -0.048338912 -0.0011233855
0.091229014 0.01751863 0.039439067 -0.11989719 -0.037951816 0.05508139 0.03246708 -0.038144816
0.06464919 -0.08821049 0.06807951 0.0010800334 -0.0121217 -0.042951494 0.08107162 0.05988327
-0.0065911543 0.00320632 -0.051173784 0.057813294 -0.08660541 0.041436866 -0.107983544 -0.004436167
-0.11124687 -0.071327396 0.00996336 0.0274995 0.05125144 -0.046698418 0.05147602 0.11396823
0.059306726 -0.11172652 -0.040769767 0.07897002 -0.10840163 -0.09909699 -0.12652142 -0.116134964
0.0469872 0.06452617 -0.04112835 -0.06352075 0.006653212 -0.08623704 0.07050927 -0.106960185
-0.0063037174 -0.03524225 0.036927536 -0.08862874 -0.044859402 -0.09484366 0.026700394 -0.1279722
13.293016 -10.223841 13.9885645 8.358794 -2.5280151 -27.490059 -105.9779 -2.5155125
5.485273 -4.67406 2.018719 28.5048 -6.9819098 -0.051861517 -12.935028 -24.230246
-170.7288 -10.36049 -76.787506 -4.2801847 -8.699281 3.6853044 -2.555981 -3.0612905
9.66274 -5.110793 -197.29752 3.7717688 -0.66911995 4.592936 3.5927384 -56.663612
-27.57342 -6.5169306 1.62472 -11.712585 2.0558465 2.3810995 -9.484519 0.85851645
11.321649 -3.5114667 -6.1445856 5.7357 -45.804874 -2.8836265 5.8861322 -94.95185
2.6136084 3.3085685 -53.210632 4.11744 -262.9227 -10.798135 -0.038213715 6.1209893
0.54911166 -4.0645165 3.9705875 4.5049586 -3.3666117 -0.7402118 -6.44246 -6.272721
-1.1320819 -19.754196 5.078775 -9.685679 2.1497817 -30.602758 -1.0456614 2.718031
2.6462455 1.5202178 3.4490213 4.3151493 -10.839486 1.3339373 1.6668792 -2.0659544
-0.9859969 2.3768253 -1.0275401 3.730629 -9.376403 0.08100444 1.4412721 -12.014486
9.367148 -11.142164 -3.4765244 0.5045662 8.700056 -0.6446092 -0.36392787 -0.118490465
1.4150138 -12.855675 -0.2513768 0.117529646 -2.762609 -1.3018546 -1.8976167 -12.075294
5.9179134 -5.420906 -4.5576906 2.189713 0.51009095 -1.992931 -0.28782713 0.37731674
-8.6423435 0.34048477 -3.2537599 0.7953767 -1.0304948 -25.89524 -13.824479 2.2652893
1.1027546 -11.256203 1.6437941 0.98915595 6.414216 2.2717247 -8.219191 -0.39009365
-5.29814 4.8465214 -0.36738485 -1.3358676 -11.780415 -7.849061 1.0822207 5.7581625
-2.3737688 -1.1987511 7.491169 3.782259 -0.55866003 13.040459 2.4074576 1.9378419
0.53579783 8.556128 -1.283695 -7.5587177 -12.381489 -8.979438 -9.566787 -7.6021914
-1.245959 0.2702755 1.3863883 1.7293549 -6.382193 -3.074897 -9.320568 5.3539004
-1.2541901 -8.968929 4.6744275 -2.4531178 -4.76435 2.9596121 2.270905 -5.7732797
-8.94 8.08636 -4.2857075 0.5095559 2.3965108 2.3917084 -4.491985 -4.307896
-3.2642927 1.546181 0.8934595 1.4850334 -5.7211514 -1.5329059 6.1848817 1.2870042
0.19401526 -39.85864 0.90658987 -14.747958 -3.2448943 -16.103085 0.9821249 2.5349085
00000000: aa5e a5bb 35c2 01be d973 00be 9411 65bc
00000010: 7356 233c 01f4 39bd 06ff 45bd 903e 93ba
00000020: 47d6 ba3d 3b83 8f3c dc8a 213d a88c f5bd
00000030: 5d73 1bbd 069d 613d 33fc 043d bd3d 1cbd
00000040: cb66 843d b4a7 b4bd 456d 8b3d e88f 8d3a
00000050: 189a 46bc e8ed 2fbd e108 a63d 2948 753d
00000060: 9cfa d7bb 2021 523b 9a9b 51bd a2cd 6c3d
00000070: 2d5e b1bd b4b9 293d 7a26 ddbd 445d 91bb
00000080: 66d5 e3bd 1914 92bd 5c3d 233c a246 e13c
00000090: 08ed 513d d746 3fbd 85d8 523d 2d68 e93d
000000a0: 9ceb 723d e0d0 e4bd 33fe 26bd 09bb a13d
000000b0: ac01 debd 5df3 cabd d58e 01be 2bd8 edbd
000000c0: a675 403d 4c26 843d 3376 28bd 2b17 82bd
000000d0: 3003 da3b 0c9d b0bd 2a67 903d f10d dbbd
000000e0: 6a8f cebb 2d5a 10bd 5441 173d fc82 b5bd
000000f0: 7ebe 37bd 653d c2bd c9ba da3c 250b 03be
00000100: 32b0 5441 da94 23c1 29d1 5f41 9fbd 0541
00000110: 00cb 21c0 a4eb dbc1 aff4 d3c2 28fe 20c0
00000120: 5b87 af40 e691 95c0 b132 0140 d509 e441
00000130: ce6b dfc0 be6c 54bd e0f5 4ec1 8bd7 c1c1
00000140: 93ba 2ac3 91c4 25c1 3493 99c2 46f7 88c0
00000150: 4130 0bc1 07dc 6b40 3195 23c0 2fec 43c0
00000160: 959a 1a41 9e8b a3c0 2a4c 45c3 a964 7140
00000170: 724b 2bbf 55f9 9240 6def 6540 8aa7 62c2
00000180: 5d96 dcc1 b28a d0c0 d3f6 cf3f c066 3bc1
00000190: fd92 0340 ef63 1840 97c0 17c1 bcc7 5b3f
000001a0: 7925 3541 dfbb 60c0 72a0 c4c0 db8a b740
000001b0: 3138 37c2 568d 38c0 325b bc40 59e7 bdc2
000001c0: 5c45 2740 96bf 5340 b0d7 54c2 12c2 8340
000001d0: 1b76 83c3 29c5 2cc1 fc85 1cbd 25df c340
000001e0: 9592 0c3f 8510 82c0 1b1e 7e40 9f28 9040
000001f0: 9176 57c0 857e 3dbf a228 cec0 21ba c8c0
00000200: 0fe8 90bf 9808 9ec1 5385 a240 8bf8 1ac1
00000210: 0696 0940 73d2 f4c1 3cd8 85bf 38f4 2d40
00000220: 165c 2940 7f96 c23f c4bc 5c40 b415 8a40
00000230: 896e 2dc1 75be aa3f 4c5c d53f 9938 04c0
00000240: 4b6a 7cbf e81d 1840 6f86 83bf a0c2 6e40
00000250: bf05 16c1 a8e5 a53d 9b7b b83f 563b 40c1
00000260: d7df 1541 4e46 32c1 607f 5ec0 402b 013f
00000270: 6e33 0b41 1c05 25bf c154 babe 21ab f2bd
00000280: 2c1f b53f d8b0 4dc1 76b4 80be 62b3 f03d
00000290: 96ce 30c0 2ca3 a6bf 1be5 f2bf 6734 41c1
000002a0: 8c5f bd40 1078 adc0 9ad8 91c0 4224 0c40
000002b0: 5295 023f 5d18 ffbf 145e 93be a92f c13e
000002c0: 0a47 0ac1 0554 ae3e 9a3d 50c0 cf9d 4b3f
000002d0: 41e7 83bf 7429 cfc1 1131 5dc1 80fa 1040
000002e0: 1027 8d3f 6819 34c1 d867 d23f 5339 7d3f
000002f0: 4241 cd40 f063 1140 ce81 03c1 5bba c7be
00000300: 5d8a a9c0 b416 9b40 de19 bcbe b6fd aabf
00000310: 947c 3cc1 822b fbc0 3586 8a3f de42 b840
00000320: d4eb 17c0 ad70 99bf a8b7 ef40 8810 7240
00000330: 5804 0fbf b8a5 5041 c913 1a40 340b f83f
00000340: 0c2a 093f e6e5 0841 1e50 a4bf 04e1 f1c0
00000350: 941a 46c1 c7ab 0fc1 8f11 19c1 2745 f3c0
00000360: 967b 9fbf 8d61 8a3e 2c75 b13f 805b dd3f
00000370: ed3a ccc0 1dcb 44c0 0c21 15c1 2753 ab40
00000380: 4d89 a0bf bc80 0fc1 e994 9540 e2ff 1cc0
00000390: 8e75 98c0 496a 3d40 8256 1140 b5be b8c0
000003a0: 3d0a 0fc1 bb61 0141 8424 89c0 4172 023f
000003b0: 6f60 1940 c011 1940 57be 8fc0 49da 89c0
000003c0: 2cea 50c0 42e9 c53f c3b9 643f 9315 be3f
000003d0: ac13 b7c0 4336 c4bf 8dea c540 8ebc a43f
000003e0: f0ab 463e 3f6f 1fc2 4616 683f a3f7 6bc1
000003f0: 59ac 4fc0 1ed3 80c1 8a6c 7b3f f13b 2240

l2.bias f4 [64]
0.051378842 -15.531887 1.8235825 1.2952148 -5.640412 -10.840795 -29.005754 -13.044323
-10.80413 0.8194456 -14.20433 -0.09908381 2.330933 -12.295834 29.535028 -15.528329
-2.4667673 9.80489 -11.484183 11.4737425 -16.138004 -0.17129546 0.18880111 -16.50254
-23.901873 7.862824 -12.711364 -4.682151 16.228773 -18.273888 -7.684828 -12.029115
-1.032397 -11.875683 -0.055231683 -0.59933597 -12.787868 -13.507424 27.816526 -12.341226
0.03293053 -14.85683 13.96044 -19.264767 7.9651 0.10723039 0.0077315224 14.85746
-22.76464 27.289274 -17.227167 -18.183935 31.593927 -10.89296 -0.111138076 10.646781
-24.325304 -0.1290816 0.9068443 -4.3857584 0.0384354 3.5533154 -7.6590977 29.62143
00000000: 9f72 523d 9c82 78c1 276b e93f 99c9 a53f
00000010: 417e b4c0 e573 2dc1 c90b e8c1 8cb5 50c1
00000020: b7dd 2cc1 30c7 513f f044 63c1 74ec cabd
00000030: 022e 1540 bcbb 44c1 bd47 ec41 0974 78c1
00000040: 84df 1dc0 d4e0 1c41 37bf 37c1 7394 3741
00000050: a21a 81c1 1468 2fbe 1455 413e 3405 84c1
00000060: 0937 bfc1 419c fb40 bf61 4bc1 2ed4 95c0
00000070: 87d4 8141 ec30 92c1 1cea f5c0 4177 40c1
00000080: 9625 84bf cc02 3ec1 9e3a 62bd 156e 19bf
00000090: 1b9b 4cc1 691e 58c1 3f88 de41 a975 45c1
000000a0: 2ae2 063d 93b5 6dc1 f65d 5f41 3e1e 9ac1
000000b0: 19e2 fe40 9b9b db3d b658 fd3b 28b8 6d41
000000c0: fc1d b6c1 6f50 da41 3dd1 89c1 b378 91c1
000000d0: 5dc0 fc41 9049 2ec1 5c9c e3bd 3759 2a41
000000e0: 399a c2c1 f82d 04be f326 683f 2258 8cc0
000000f0: 706e 1d3d 8569 6340 5417 f5c0 b0f8 ec41

l3.weight f4 [4, 64]
0.09762285 7.3446293 3.3931415 16.73066 -5.579536 -1.7921644 9.974571 2.195936
-4.1005354 -6.166792 0.6218839 0.008111045 4.7409816 5.3675723 18.308111 -1.5972089
1.2613612 7.536239 -4.0910964 -3.3518279 5.6007953 0.024164014 -2.1859193 -2.7524974
-4.74667 22.184538 -0.5730809 -4.1667056 6.635911 0.44224587 5.7532306 7.183535
3.1012766 0.70562756 0.021447279 -9.788985 -0.44125563 -0.28924292 17.009254 -2.8545222
0.05120534 2.000469 10.061687 7.8761497 -2.0495129 0.07612033 -2.8487809 -5.7921214
0.5511373 8.051013 -0.16839646 0.033878326 0.105255224 -1.2750312 -0.111945175 23.806147
-2.5529652 0.00678523 -6.579681 -5.857076 0.0070972387 -2.9409242 -0.83812964 21.408724
-0.13027151 9.018434 3.6063318 14.435233 -4.9907856 -0.90592283 8.658742 -0.9253846
-0.50593626 -0.83325136 -0.3133579 -0.10807401 2.6126206 8.268502 20.008808 -1.314897
-0.09042995 10.083743 -3.191364 1.8666173 2.6399236 -0.0733851 -0.1331334 -0.36701143
-3.8800905 21.3643 -2.2028089 -1.8279967 0.5780483 2.4399576 1.5477909 7.868062
-0.0113449395 0.83408684 0.102303706 -10.576014 -1.2884179 -2.7032084 20.874907 -1.6143775
-0.108263746 -1.4779892 6.236766 8.952922 0.6274327 0.040820435 -1.1369709 -4.1318693
-1.0016724 8.062033 -2.0579154 -2.2176511 1.850718 -2.4960272 0.070969194 18.424868
-2.427961 -0.10882939 -0.80324465 -1.1730592 -0.085365586 8.020456 -1.6951028 21.384497
-0.02782577 7.6986804 4.3261695 11.916496 -5.6565547 -2.1082213 6.2758465 0.64865524
-0.9398248 -1.5144825 -1.8240145 0.12424418 4.4489317 5.2984257 21.468891 -1.6516899
2.8747766 12.258373 -5.2391357 -5.2571917 3.5097747 -0.03048502 -0.7857769 -1.2722064
-2.1517353 22.254286 0.2139167 -1.2649493 2.827458 2.8296714 5.6093445 7.534461
1.9081159 -1.1264967 0.06496769 -11.106185 -1.9129968 0.25865692 19.553644 -1.6868869
0.00813833 -0.40469545 11.558676 8.082175 -3.0713625 -0.02074407 -0.75577885 -3.7267482
0.26642412 12.588288 0.51977146 0.45681632 -0.704176 0.9652819 -0.12216109 24.665064
-3.2138777 0.09871177 -5.1011047 -5.6296687 0.08070274 3.5501504 0.33968967 17.700527
0.06569781 8.762218 3.56608 13.633294 -4.801542 -0.60607356 8.215416 -1.2789463
0.3872345 -0.13055806 -0.7285087 -0.03833708 2.519179 8.093265 21.514143 -0.99242634
-0.01706746 10.854957 -4.0217233 0.72152483 1.5731759 0.10503058 0.36284247 0.4126132
-3.6084688 21.550161 -2.0737832 -1.5187674 -0.14001106 2.7330918 0.794967 8.227622
0.69941336 0.8727949 0.10569153 -11.219485 -1.8773178 -2.149504 21.804476 -2.4476936
0.010921952 -1.4518477 6.669736 9.028471 0.4400733 -0.053662375 -0.979061 -2.9700074
-2.4029305 8.0699415 -2.5270076 -1.8713124 1.8230549 -1.7271546 -0.078786425 16.98691
-2.7036314 -0.0109228585 -1.5445224 -0.9688322 0.08420414 7.703177 -1.5632914 20.288107
00000000: 7dee c73d 3407 eb40 3b29 5940 64d8 8541
00000010: 8f8b b2c0 a565 e5bf d897 1f41 378a 0c40
00000020: 9637 83c0 5c56 c5c0 c933 1f3f 30e4 043c
00000030: 1fb6 9740 27c3 ab40 0377 9241 5771 ccbf
00000040: 4974 a13f df28 f140 43ea 82c0 5984 56c0
00000050: b739 b340 9cf3 c53c 1ae6 0bc0 eb28 30c0
00000060: b8e4 97c0 ef79 b141 6eb5 12bf a755 85c0
00000070: 6259 d440 0d6e e23e 771a b840 85df e540
00000080: 517b 4640 02a4 343f 34b2 af3c af9f 1cc1
00000090: 42ec e1be a617 94be f412 8841 7eb0 36c0
000000a0: b1bc 513d af07 0040 acfc 2041 6b09 fc40
000000b0: 382b 03c0 fae4 9b3d 6d52 36c0 0f59 b9c0
000000c0: 5617 0d3f f3d0 0041 1f70 2cbe 00c4 0a3d
000000d0: 0d90 d73d 3934 a3bf 8343 e5bd fd72 be41
000000e0: c863 23c0 a256 de3b bf8c d2c0 2b6d bbc0
000000f0: f48f e83b 1a38 3cc0 aa8f 56bf 1145 ab41
00000100: e565 05be 814b 1041 24ce 6640 b7f6 6641
00000110: 84b4 9fc0 8fea 67bf 358a 0a41 01e6 6cbf
00000120: 0a85 01bf f64f 55bf 7270 a0be e855 ddbd
00000130: 2d35 2740 c94b 0441 0a12 a041 8b4e a8bf
00000140: 5633 b9bd 0357 2141 4f3f 4cc0 51ed ee3f
00000150: 82f4 2840 ed4a 96bd 1f54 08be ece8 bbbe
00000160: 6753 78c0 16ea aa41 d2fa 0cc0 ccfb e9bf
00000170: f9fa 133f 4428 1c40 031e c63f 2ac7 fb40
00000180: 20e0 39bc b786 553f 9b84 d13d 5a37 29c1
00000190: e1ea a4bf 5e01 2dc0 cfff a641 eca3 cebf
000001a0: 62b9 ddbd c02e bdbf 9693 c740 2b3f 0f41
000001b0: 6e9f 203f 5433 273d 4388 91bf 4638 84c0
000001c0: cd36 80bf 16fe 0041 e3b4 03c0 ffed 0dc0
000001d0: 54e4 ec3f e9be 1fc0 4c58 913d 2166 9341
000001e0: b763 1bc0 f1e1 debd 71a1 4dbf ce26 96bf
000001f0: 27d4 aebd ca53 0041 21f9 d8bf 7313 ab41
00000200: dff2 e3bc 975b f640 fb6f 8a40 f8a9 3e41
00000210: 7f02 b5c0 19ed 06c0 bcd3 c840 450e 263f
00000220: 5c98 70bf 90da c1bf 4f79 e9bf bc73 fe3d
00000230: a65d 8e40 b48c a940 4ac0 ab41 936a d3bf
00000240: 57fc 3740 4c22 4441 00a7 a7c0 ea3a a8c0
00000250: 26a0 6040 b8bb f9bc ad28 49bf a9d7 a2bf
00000260: 08b6 09c0 c708 b241 fb0c 5b3e dce9 a1bf
00000270: 12f5 3440 5619 3540 c07f b340 4e1a f140
00000280: 243d f43f 0b31 90bf c80d 853d efb2 31c1
00000290: 14dd f4bf ae6e 843e dd6d 9c41 e9eb d7bf
000002a0: a156 053c 3e34 cfbe 56f0 3841 9750 0141
000002b0: 3491 44c0 78ef a9bc b97a 41bf 0b83 6ec0
000002c0: be68 883e a169 4941 be0f 053f d4e3 e93e
000002d0: e144 34bf b71c 773f 982f fabd 0d52 c541
000002e0: 2cb0 4dc0 6529 ca3d 403c a3c0 3f26 b4c0
000002f0: 7a47 a53d aa35 6340 ceeb ad3e ae9a 8d41
00000300: 938c 863d 0c32 0c41 a83a 6440 f921 5a41
00000310: 3ba6 99c0 a327 1bbf 5872 0341 83b4 a3bf
00000320: 9a43 c63e 03b1 05be 8c7f 3abf 5807 1dbd
00000330: 3b3a 2140 037e 0141 f71c ac41 a70f 7ebf
00000340: 0fd1 8bbc e7ad 2d41 f5b1 80c0 dab5 383f
00000350: d45d c93f 461a d73d 7dc6 b93e 0a42 d33e
00000360: 27f1 66c0 bb66 ac41 ddb8 04c0 f866 c2bf
00000370: 0f5f 0fbe faea 2e40 f582 4b3f 57a4 0341
00000380: c10c 333f 7d6f 5f3f cd74 d83d 0383 33c1
00000390: f34b f0bf 7991 09c0 916f ae41 03a7 1cc0
000003a0: fdf1 323c 25d6 b9bf 7a6e d540 9e74 1041
000003b0: 4a51 e13e 14cd 5bbd bea3 7abf 9a14 3ec0
000003c0: 9dc9 19c0 7b1e 0141 7eba 21c0 2a87 efbf
000003d0: dd59 e93f 6713 ddbf c75a a1bd 31e5 8741
000003e0: 4c08 2dc0 caf5 32bc e9b2 c5bf 6305 78bf
000003f0: 3873 ac3d 6d80 f640 ef19 c8bf 0b4e a241

l3.bias f4 [4]
-31.520222 13.876171 3.3528514 17.232203
00000000: 6a29 fcc1 cc04 5e41 1e95 5640 8ddb 8941
