Linear_variable/with_background_info/weights_100000_0.001_0.99_128_True_0.35_4actions.pt (torch, 22571 bytes, 6 tensors)

l1.weight f4 [64, 5]
0	0x3fea34c3	1.8297352
1	0x3f478daa	0.7795054
2	0xbe553347	-0.20820342
3	0x3eab5980	0.3346672
4	0xbaf0cc08	-0.0018371353
5	0x40c62853	6.1924224
6	0x41c2d20d	24.352564
7	0xc0c0c337	-6.02383
8	0xc1c28886	-24.316662
9	0xbee718e6	-0.45136184
10	0x40df7e5d	6.984175
11	0xc122a6bd	-10.165708
12	0xc101f85f	-8.123137
13	0x41223140	10.137024
14	0x40234d0c	2.5515776
15	0xc1a897b8	-21.074081
16	0xc055cd29	-3.340647
17	0x41a822a2	21.01691
18	0x405620e7	3.3457582
19	0x3c4e7a46	0.012602394
20	0x4125ea50	10.369705
21	0xc0d69dfc	-6.706785
22	0xc12e0094	-10.875141
23	0x40d24df8	6.5720177
24	0x3fae7612	1.3629782
25	0xbfc0ee7c	-1.507278
26	0xbf7c7384	-0.9861376
27	0xbec9ede4	-0.3943931
28	0x3e481729	0.19540085
29	0x3b5868b4	0.0033021392
30	0xbfa45d31	-1.284094
31	0x41922770	18.269257
32	0xc06a681d	-3.6626046
33	0xc1952d1c	-18.647026
34	0x3e4e3921	0.2013898
35	0x403336eb	2.800227
36	0xc09ce1ad	-4.9025483
37	0xbfd3432b	-1.6504873
38	0x40ba29ab	5.8175864
39	0x3c99cfbb	0.018775811
40	0x3fcae8db	1.5852312
41	0xc17ac433	-15.6729
42	0xc09894c3	-4.7681594
43	0x41749473	15.2862425
44	0x3f801485	1.0006262
45	0xc1276cd4	-10.464069
46	0x3ff42b92	1.9075797
47	0x40d0a03c	6.51956
48	0xbfc7f56a	-1.562177
49	0xbdc1868a	-0.094494894
50	0xc002eb0a	-2.0455956
51	0x4122474e	10.142408
52	0xc015d75d	-2.3412697
53	0xc127f72d	-10.497846
54	0x3ee899b2	0.4542976
55	0x3e9ec604	0.3101045
56	0x415564d1	13.337113
57	0xc07bddcd	-3.9354126
58	0xc1661fc0	-14.382751
59	0xbc9f6c0e	-0.019460704
60	0xc092470b	-4.571172
61	0xbfe07ed8	-1.753871
62	0x409690bd	4.7051682
63	0x3f571740	0.8401985
64	0x3e047f10	0.12939095
65	0xc0b86858	-5.7627373
66	0x4099ebd8	4.8100395
67	0x40ab1431	5.346215
68	0xc09ae2a8	-4.840168
69	0xc003a03f	-2.0566556
70	0xc0d62a21	-6.6926427
71	0xbee99474	-0.45621073
72	0x40114cdd	2.2703164
73	0xbf55105a	-0.83228076
74	0xbd169386	-0.036761783
75	0xc12ee285	-10.930303
76	0x3fc8000c	1.5625014
77	0x4147fdbd	12.499448
78	0xbfb7846a	-1.4337285
79	0x3fa78b34	1.3089356
80	0xbf15963e	-0.58432376
81	0x40001a10	2.0015907
82	0xbe57a881	-0.21060373
83	0xbf6949e7	-0.9112839
84	0x3be4eefc	0.006986497
85	0xc0f43714	-7.6317234
86	0xc1078ad6	-8.4713955
87	0x40822a35	4.067652
88	0x41011db9	8.0697565
89	0x3fa7ed82	1.3119357
90	0x40b0a53c	5.52017
91	0xbf8ac973	-1.0842727
92	0xc089d6b2	-4.307458
93	0x3f7df2c0	0.9919853
94	0x3faec40b	1.3653578
95	0x41491c68	12.569435
96	0xc0afacbd	-5.489836
97	0xc13b2f11	-11.698991
98	0x40b0b837	5.522487
99	0x3eac36aa	0.33635455
100	0xbe8a21f8	-0.2697904
101	0xc087d20c	-4.2443905
102	0x40722444	3.7834635
103	0x408557b1	4.1669545
104	0x405d739c	3.4601812
105	0x3f7ffd40	0.99995804
106	0x3fa9006f	1.3203257
107	0xbe850a25	-0.25984302
108	0xbfb35fa0	-1.4013557
109	0x3d2efb14	0.042719916
110	0xbf4a4c21	-0.79022413
111	0xbf258eaf	-0.6467084
112	0xbdc9b2c2	-0.098485485
113	0xbeca640d	-0.39529458
114	0x389cef40	7.4832235e-05
115	0x3f2d54fa	0.6770779
116	0x40964678	4.696102
117	0x3fddd4e5	1.7330595
118	0xc0b10be6	-5.5327024
119	0xba6f1298	-0.0009119897
120	0x40063a55	2.0973103
121	0xc02248b7	-2.5356882
122	0x4057946c	3.368434
123	0x403584b1	2.8362238
124	0xbdc4a634	-0.09602013
125	0xc15b3e20	-13.702667
126	0xc0a1fc99	-5.0620847
127	0x415c71aa	13.77775
128	0x40a48bf7	5.1420856
129	0xbd0c587e	-0.03426408
130	0x41206a24	10.025913
131	0xc162011a	-14.125269
132	0xc1213cb1	-10.077317
133	0x41620086	14.125128
134	0x3da06264	0.078312665
135	0x404a2b48	3.1588917
136	0xc0747625	-3.819711
137	0xc0e664a8	-7.199787
138	0x4064b400	3.5734863
139	0x3ff52291	1.9151174
140	0xc0a26a03	-5.075441
141	0xc11b79bc	-9.71722
142	0x40f77e38	7.7341576
143	0x411fa05c	9.97665
144	0xbec5bb9f	-0.38619706
145	0xbfd4afef	-1.6616191
146	0xbfedc3e8	-1.8575411
147	0x3f6990fa	0.9123684
148	0xbf5c83f8	-0.8613887
149	0xbc938391	-0.018007072
150	0x4096e9c8	4.7160378
151	0x409021d7	4.504131
152	0xc0e78e28	-7.236103
153	0xc095a679	-4.6765714
154	0x4040d4b9	3.0129836
155	0xc028c963	-2.6372917
156	0x41aa0446	21.252087
157	0x4009186e	2.142116
158	0xc1abbb37	-21.466413
159	0x402c8e2e	2.696178
160	0x412d027d	10.8131075
161	0x417192eb	15.098369
162	0xc06b79ae	-3.6793017
163	0xc166e5ef	-14.431136
164	0x409b7e94	4.8592014
165	0x4032a80d	2.791507
166	0x3f394ac4	0.7237971
167	0xc07b5379	-3.9269698
168	0xbef3af12	-0.47594506
169	0x402b3816	2.6752982
170	0x3f957a7e	1.1678007
171	0x414908b8	12.564629
172	0x3c18b9cf	0.009321644
173	0xc14d965a	-12.849207
174	0x3c7a2370	0.015267238
175	0x3fbb3256	1.4624736
176	0xc0f0962c	-7.5183315
177	0x40629049	3.5400565
178	0x4101610f	8.086196
179	0xbe0c3241	-0.13691045
180	0x3e49d5f5	0.19710524
181	0xc050e46d	-3.263942
182	0x3eaee99d	0.34162608
183	0x3ff04205	1.8770148
184	0x3aa0bf30	0.001226401
185	0xc0807b1c	-4.015028
186	0xc15e50e2	-13.894747
187	0x40725822	3.7866292
188	0x415dd91f	13.865508
189	0x3de5c7a4	0.11219719
190	0x40a13d05	5.0386987
191	0xc0c7c442	-6.2427073
192	0xc0a0dafa	-5.0267305
193	0x40c84a59	6.2590756
194	0xbd9b61d0	-0.07587016
195	0x40878e69	4.236134
196	0xc0b81f5e	-5.753829
197	0xc0dac70e	-6.8367987
198	0x40a8feac	5.281088
199	0x40903d63	4.5074935
200	0xc018b9a0	-2.3863297
201	0xc0530742	-3.297318
202	0xbf8bd0b8	-1.0923071
203	0x4033052a	2.7971902
204	0x40993d0d	4.7887025
205	0xbc860ced	-0.016363585
206	0x402f17ba	2.7358232
207	0x40bb76b3	5.8582397
208	0xc004aec9	-2.073168
209	0x3f1574cd	0.5838135
210	0xbf1a74bf	-0.6033439
211	0xbe36484a	-0.17801014
212	0x3e6662d3	0.22498636
213	0xbf7685b0	-0.9629774
214	0x3b98f8dc	0.004668338
215	0xc109ade6	-8.604956
216	0x418ce49d	17.611628
217	0x4125c076	10.359488
218	0xc18b6f40	-17.429321
219	0x3ee6291e	0.44953245
220	0xc0f1deea	-7.558461
221	0xc0e34612	-7.1023035
222	0xbd4356ef	-0.04769033
223	0x40cb1a86	6.3469877
224	0x3d177c58	0.036983818
225	0xc107c9a4	-8.486729
226	0x418e3564	17.77607
227	0x410a42c4	8.6413
228	0xc18ec990	-17.84842
229	0x3ecd05b0	0.40043402
230	0xc038eddb	-2.8895175
231	0xc1903830	-18.027435
232	0x40457832	3.0854611
233	0x41907c18	18.060593
234	0x3dffbbd6	0.12486999
235	0xbf7d8fe0	-0.9904766
236	0x40379b35	2.868848
237	0x3f31498b	0.6925284
238	0xbfbd24c4	-1.4776845
239	0xba97a080	-0.0011568218
240	0x41950c9d	18.631159
241	0xc0e90735	-7.28213
242	0xc193e13f	-18.484983
243	0x40e71552	7.2213526
244	0xbf1dc60b	-0.61630315
245	0x3e27f4de	0.16402003
246	0x3f314d79	0.6925884
247	0x3e87809f	0.26465318
248	0x3ee816a4	0.45329773
249	0xbb871561	-0.0041224216
250	0x4008bd5b	2.1365573
251	0xc09f9efb	-4.988157
252	0xc03f50a6	-2.9892974
253	0x4053e26c	3.3106947
254	0x3bb45632	0.0055034393
255	0xbfa10d65	-1.2582213

l1.bias f4 [64]
0	0xc15f7e1c	-13.968288
1	0xbf391565	-0.7229827
2	0x41dc356c	27.526085
3	0x407c786b	3.9448497
4	0x410930cb	8.574412
5	0xc15e3259	-13.887292
6	0x4193c89c	18.472954
7	0xc14beeaa	-12.745768
8	0x41bbc908	23.47316
9	0xc18385d2	-16.440342
10	0x41e04be5	28.037058
11	0xc1c70f8a	-24.882587
12	0xc1860bc5	-16.755747
13	0x407ef551	3.983723
14	0xc2028987	-32.634304
15	0x40b1bb35	5.5541024
16	0xc1257dc8	-10.343208
17	0x41f26912	30.301304
18	0xc1bb036d	-23.376673
19	0x40fb501f	7.8535304
20	0xc1809328	-16.071854
21	0xc1051fb2	-8.320238
22	0xc120130f	-10.004653
23	0xc18666b6	-16.800152
24	0xc1c6c322	-24.84528
25	0xbe313ffa	-0.17309561
26	0x3ed70eb0	0.42003393
27	0x412c59e2	10.771944
28	0x41ea1648	29.26088
29	0xc19fbf9c	-19.96856
30	0x41824a04	16.28614
31	0x41a14ede	20.16351
32	0x41cae32c	25.360924
33	0xc1965fe4	-18.796822
34	0xc1196ec1	-9.58954
35	0xbf3644b4	-0.7119858
36	0xc127bd42	-10.4837055
37	0x3f0e256b	0.55525845
38	0x3bbbbfa2	0.0057296315
39	0x41bef16e	23.867886
40	0xc199e22a	-19.235432
41	0xc1be14c7	-23.760145
42	0xc103f0bf	-8.246276
43	0x417e6925	15.90067
44	0xc1808ed2	-16.069736
45	0x41451f98	12.320213
46	0xc001b210	-2.026493
47	0xc1146214	-9.273945
48	0x41f9426f	31.157438
49	0xc10604ca	-8.376169
50	0xc15b6193	-13.711322
51	0x41c0df01	24.108889
52	0xc153f9dd	-13.248502
53	0x3eedb49a	0.4642685
54	0xc17e9d72	-15.913439
55	0x41f1e475	30.236551
56	0x412e3ca2	10.889803
57	0xc1846f8e	-16.55447
58	0x41689cca	14.538279
59	0xc128e623	-10.556186
60	0xc1aa01ec	-21.250938
61	0x4147cf81	12.48816
62	0x41477cc0	12.467957
63	0xc11bce81	-9.737916

l2.weight f4 [64, 64]
0	0xbbb2b02a	-0.0054531293
1	0xc1c1c4bf	-24.221067
2	0xc0d82254	-6.7541904
3	0x4203ad0e	32.919
4	0x3f59a14e	0.85011756
5	0x4083aea0	4.1150665
6	0xbf84b063	-1.0366329
7	0xc21156b8	-36.334686
8	0xc00ee46e	-2.2326922
9	0x4125c324	10.360142
10	0xc01f2de8	-2.487177
11	0xc18c2677	-17.518782
12	0xc0400d72	-3.0008206
13	0x40c15557	6.0416675
14	0x3e43c80f	0.19119285
15	0xc0c960d5	-6.2930703
16	0xbf406495	-0.75153476
17	0x3f6feeb4	0.9372361
18	0xc053d918	-3.3101254
19	0xc0889978	-4.268734
20	0xbe25f2dc	-0.16205925
21	0xc11c05cf	-9.751418
22	0x40e26fc8	7.076145
23	0x40a10fc6	5.0331755
24	0x41357566	11.341162
25	0x41e2e835	28.363382
26	0xc2cceb1a	-102.45918
27	0xc0118c78	-2.2741985
28	0x400d1378	2.2043133
29	0x40a05861	5.0107884
30	0x4114e995	9.307027
31	0xc0f2179d	-7.5653825
32	0xbf93b451	-1.1539403
33	0xc10422cb	-8.258494
34	0xc0d6206d	-6.691458
35	0xc08cdb9a	-4.401807
36	0x400eb948	2.2300587
37	0xc15a98c6	-13.662298
38	0x3ff1faa4	1.8904614
39	0xc1749cc4	-15.288273
40	0xc02203f7	-2.531492
41	0x402d8f0e	2.7118564
42	0x408e8a49	4.4543805
43	0x412183cd	10.094678
44	0x3f61afea	0.8815905
45	0x400ecd3b	2.2312763
46	0x4119b020	9.605499
47	0x40a4de45	5.1521325
48	0xc15fd7f0	-13.990219
49	0xc0d0fe26	-6.531024
50	0xc0896b4e	-4.2943487
51	0xc0692337	-3.6427743
52	0xc05f0499	-3.4846556
53	0x41a743b3	20.908056
54	0xc20d00a5	-35.25063
55	0x411544dd	9.329312
56	0x40815d8d	4.04267
57	0xbf45819e	-0.77150905
58	0xc0af6fb4	-5.4823856
59	0xc0492317	-3.1427667
60	0x40f3b0ad	7.615317
61	0x41455c77	12.335074
62	0xbea4cdf7	-0.3218839
63	0xc1415ca8	-12.085121
64	0xbfb557b2	-1.4167387
65	0x416d280a	14.822275
66	0x41c12f31	24.148043
67	0xc2af6b9c	-87.710175
68	0x41218d2a	10.096964
69	0x4044305f	3.0654523
70	0x414aaab9	12.66668
71	0xc08ed138	-4.4630394
72	0x41a75f68	20.921585
73	0xc23ce93b	-47.227764
74	0xc25a39cd	-54.556446
75	0xc27d7efd	-63.374012
76	0xc0ab277d	-5.3485703
77	0xbebd16c9	-0.36931446
78	0xc1850b95	-16.630655
79	0x415c734e	13.778151
80	0xc08b622f	-4.3557353
81	0x40b876d3	5.764505
82	0xc1212719	-10.072045
83	0x4192acfa	18.334461
84	0x40e46029	7.1367383
85	0xc103c172	-8.234728
86	0x40bafed1	5.8436055
87	0xc1472bd8	-12.448204
88	0x4094429c	4.633131
89	0xc20bd975	-34.96236
90	0x4160e0c8	14.054878
91	0xbfb11cb5	-1.3836886
92	0x415c5738	13.771294
93	0xc15f2ed8	-13.948936
94	0x41434b4f	12.205886
95	0xc1ebe107	-29.484877
96	0xc123f912	-10.248308
97	0xc071afd3	-3.7763565
98	0x406a1888	3.6577473
99	0x40d3816e	6.6095495
100	0x40226c53	2.5378616
101	0x4171e226	15.117712
102	0x40070303	2.1095588
103	0x417b418a	15.703501
104	0x4133ef45	11.245915
105	0xc193da8c	-18.481712
106	0x40aa5185	5.322451
107	0xc1ab4fd9	-21.413988
108	0x3fb04127	1.3769883
109	0xc28e7d82	-71.24513
110	0xc1b27ee8	-22.311966
111	0x40937d73	4.6090636
112	0x420759a2	33.837532
113	0x4146274d	12.384595
114	0xc0193909	-2.3941061
115	0xc1b45c51	-22.545076
116	0xbe77b704	-0.24190909
117	0x410760d5	8.461141
118	0x3d3cab75	0.04606195
119	0x410444c3	8.266788
120	0x40b43775	5.6317697
121	0xc15e4551	-13.891923
122	0x41d3cd56	26.475262
123	0xc145ad49	-12.354806
124	0xc206a216	-33.658287
125	0x4169d435	14.614308
126	0x405ab24b	3.4171321
127	0xbfb61eeb	-1.4228185
128	0xc02ac691	-2.6683695
129	0xc2433261	-48.7992
130	0x40003e34	2.0037966
131	0x4241e326	48.471825
132	0xc1192b07	-9.573005
133	0xc131921c	-11.098171
134	0x40427e5e	3.0389628
135	0xc18c3920	-17.527893
136	0x3ee9d0a6	0.45667
137	0xc10a7e45	-8.6558275
138	0xc192609f	-18.297178
139	0xc04286c9	-3.0394766
140	0x409ac287	4.836246
141	0x3fa58b91	1.2933217
142	0xc13d9af6	-11.850332
143	0x40386bbe	2.881576
144	0xc07a8bf4	-3.914792
145	0x413808c4	11.50214
146	0xc18b2f96	-17.398235
147	0xc1a2b92a	-20.340412
148	0xbddf2bc6	-0.10897021
149	0xbf491042	-0.7854043
150	0xc1284d57	-10.518882
151	0xc00d29d8	-2.205679
152	0x41c40525	24.502512
153	0x40cc897c	6.3917828
154	0xc0cea534	-6.4576664
155	0xc07b5ec7	-3.9276597
156	0x40e19f18	7.0506706
157	0xc1b353db	-22.415945
158	0xbfc23c5f	-1.5174674
159	0xbf6141dd	-0.87991124
160	0xc08f0d2d	-4.4703584
161	0xc05c5e8a	-3.4432702
162	0xc1cdff18	-25.749557
163	0x3eff462a	0.49858218
164	0xc1a194ba	-20.19762
165	0xc0c43c19	-6.132336
166	0xc21232d5	-36.54964
167	0xc02accfa	-2.6687608
168	0x40c66528	6.199848
169	0xbf4084e0	-0.7520275
170	0xc1853e5f	-16.655455
171	0x411afbd4	9.686481
172	0x3f83dfbf	1.0302657
173	0xc02530ad	-2.581096
174	0x421aebf5	38.730427
175	0xc18bab83	-17.458746
176	0xc10f94f7	-8.973868
177	0x410fe313	8.992938
178	0xc19f2724	-19.894112
179	0x40a74afb	5.227903
180	0x408a26cf	4.3172374
181	0x40a263b6	5.0746717
182	0x40fcf2eb	7.904653
183	0x40afcd2b	5.493795
184	0x3f928875	1.1447893
185	0x4128031f	10.500762
186	0xc03a7bdb	-2.9138095
187	0xc1040528	-8.251259
188	0xc2001a67	-32.025784
189	0xc095e64a	-4.6843615
190	0xc105f1d5	-8.371541
191	0xc14a7e87	-12.65589
192	0x41845e05	16.545908
193	0xc162bc75	-14.17101
194	0xc1a2e869	-20.363482
195	0x42d50366	106.50664
196	0xc209436b	-34.315838
197	0xc0899878	-4.299862
198	0x406fec02	3.7487798
199	0xc0289c5c	-2.6345434
200	0xc2366b04	-45.604507
201	0xc118e0a6	-9.554846
202	0x416800f5	14.500234
203	0xc1b0388b	-22.027609
204	0xc0b3d0e5	-5.61925
205	0x41059185	8.348027
206	0xbec5791f	-0.3856897
207	0x425b852e	54.88006
208	0xc0443464	-3.0656977
209	0x4165aa83	14.354129
210	0xc095c018	-4.679699
211	0xc1e17b0c	-28.185081
212	0xc14e129b	-12.879542
213	0xc0a22b99	-5.067822
214	0x40e186a2	7.0476847
215	0x40ac03f5	5.375483
216	0x40fe180e	7.9404364
217	0x4177761e	15.466337
218	0xc2e0ea17	-112.45721
219	0x40d98fcd	6.798804
220	0x41403560	12.013031
221	0x403076d8	2.7572536
222	0x40f73025	7.724627
223	0x40bd1197	5.908397
224	0xc1169e36	-9.413626
225	0x3f8b0521	1.086094
226	0x40f8fe78	7.781063
227	0xc10b6540	-8.712219
228	0xbe1624e3	-0.14662509
229	0x422642f7	41.565395
230	0x40fc5860	7.885788
231	0x4127641c	10.461941
232	0x41309a42	11.037661
233	0xc12bd810	-10.74025
234	0x412d5473	10.8331175
235	0x4185c9fa	16.723621
236	0x3dabd10f	0.08389484
237	0x41ced711	25.855013
238	0xc2144d78	-37.075653
239	0x40446a23	3.068978
240	0xc1e624c8	-28.76796
241	0x4118dead	9.554364
242	0xc121536d	-10.082868
243	0xc1453bc7	-12.327094
244	0xc1030f02	-8.191164
245	0x41afcfac	21.976402
246	0xc0e56a12	-7.169198
247	0x409e626d	4.949515
248	0x406cb1a2	3.6983418
249	0x3f34f423	0.70685023
250	0xc16b0c21	-14.690461
251	0xc09cd609	-4.9011273
252	0x4142d2bf	12.176452
253	0xc1dda9a7	-27.707838
254	0x40185af6	2.3805518
255	0xc00d6658	-2.2093716

l2.bias f4 [64]
0	0xc0d3a5ec	-6.614004
1	0x41322d53	11.1360655
2	0x40d7e9f6	6.7473097
3	0xc02e93e5	-2.7277768
4	0xc0af3b93	-5.4760222
5	0xc16c9134	-14.78545
6	0xc12fc522	-10.985628
7	0xc007a73b	-2.119582
8	0xc077a6f9	-3.8695662
9	0xbf324a79	-0.69644886
10	0xc091bfb9	-4.5546536
11	0xc08cf46e	-4.4048376
12	0xc1405543	-12.020816
13	0xc0d0b611	-6.522225
14	0x3fcf5065	1.619641
15	0xc027c145	-2.6211712
16	0xbf5cba70	-0.8622198
17	0xc0cdadc7	-6.427463
18	0xc1130487	-9.188605
19	0x3effb460	0.49942303
20	0xc19e9d46	-19.826794
21	0xc0222557	-2.533529
22	0xc0af1521	-5.471329
23	0xbe492565	-0.19643171
24	0x3f0c1c08	0.5473027
25	0x3ece1585	0.40250793
26	0xc17f8697	-15.970359
27	0xc0d2849c	-6.5786877
28	0xc143251a	-12.196558
29	0x3e902de6	0.28160018
30	0x3f63a075	0.88916713
31	0xc0660678	-3.5941448
32	0x3f8c1251	1.094309
33	0xc0efec5e	-7.4976034
34	0xc17a04f2	-15.626207
35	0x3f8b3e0b	1.0878309
36	0xc104a789	-8.290902
37	0xc108ac25	-8.542027
38	0x418e5481	17.791262
39	0xc03d2c47	-2.9558275
40	0xc1235640	-10.208557
41	0xc1676c62	-14.463961
42	0xc0d18fa1	-6.548783
43	0x40ffaacd	7.9895997
44	0xc0803e31	-4.0075917
45	0xc15a948f	-13.661269
46	0xc08fe2ab	-4.4964194
47	0xc0621219	-3.5323546
48	0xc1d6c149	-26.844378
49	0x40d93705	6.7879663
50	0xc1f961ad	-31.172693
51	0xc07145a4	-3.7698755
52	0x418323f7	16.392561
53	0x4034a35b	2.8224704
54	0x419aab91	19.333773
55	0xbda00e9b	-0.07815286
56	0xbdc4a684	-0.09602073
57	0xc0e7a165	-7.2384515
58	0xc0a1e9e9	-5.0598035
59	0xc0cdcecc	-6.4314938
60	0xc06ca3fe	-3.6975093
61	0xc1a684f1	-20.814913
62	0x418f2d62	17.89716
63	0x4014ba59	2.3238738

l3.weight f4 [8, 64]
0	0x429c25f0	78.0741
1	0x3fcbf206	1.5933235
2	0x4243eaf5	48.97945
3	0x412472dc	10.278042
4	0x41041c3f	8.256896
5	0x41f2b058	30.336105
6	0x3e068815	0.13137849
7	0xc0a48bbd	-5.142058
8	0xc0f4691d	-7.637831
9	0xc0a469db	-5.137922
10	0xc0b23d4c	-5.5699825
11	0xc083a7db	-4.11424
12	0x40f0aa3f	7.520782
13	0x3f1fb43b	0.62384385
14	0xc112609c	-9.148586
15	0xc11510d9	-9.316613
16	0x40f46d91	7.638375
17	0xc105b2a5	-8.356114
18	0xc0928ff0	-4.5800705
19	0xc13c695c	-11.7757225
20	0x42062ca6	33.543602
21	0xc064fbe4	-3.5778742
22	0x409bebc8	4.872532
23	0xc24c0b97	-51.01132
24	0x40116086	2.2715163
25	0xc07e1718	-3.9701595
26	0xc1476744	-12.462711
27	0x411450ac	9.269695
28	0xc120341b	-10.012721
29	0xc03e09fe	-2.9693599
30	0x406f8767	3.7426393
31	0xc0fd062f	-7.907005
32	0xc1809dea	-16.077106
33	0xbff8025b	-1.9375719
34	0xc06d2a1b	-3.705695
35	0xc1144bbc	-9.26849
36	0xc010fa05	-2.26526
37	0xbf6fc16a	-0.936545
38	0x412fbc1a	10.983423
39	0xc0b31ce1	-5.5972753
40	0xbd87ffc2	-0.06640579
41	0x419d80eb	19.687948
42	0xc0107477	-2.2571084
43	0x42076de7	33.857327
44	0xc09bcb76	-4.8685865
45	0xc01b43b8	-2.4260082
46	0xc12057c7	-10.02143
47	0xc012f563	-2.2962272
48	0xc0ac1f1c	-5.3787975
49	0x41b229f7	22.27049
50	0xbfd69e28	-1.6767015
51	0xc0e82ce3	-7.2554793
52	0x411d71d9	9.840295
53	0x411aa921	9.666291
54	0x406a64c2	3.6623998
55	0xc0a74f44	-5.228426
56	0x3b2ada30	0.0026069991
57	0x40442632	3.0648313
58	0x40034df6	2.0516334
59	0x40fa03e2	7.812974
60	0xc1110fd8	-9.066368
61	0xbe061e4c	-0.13097495
62	0x40caf3a2	6.3422403
63	0xc175b739	-15.357232
64	0x4275b4cb	61.426556
65	0x3fe0be9d	1.755817
66	0x42462ec1	49.54566
67	0x41a1aee5	20.210398
68	0x412038c9	10.013864
69	0x421d92bc	39.393295
70	0xbecd6576	-0.4011647
71	0x4030a084	2.759797
72	0xc0e894be	-7.268157
73	0xc0ab1b84	-5.347109
74	0xc13a9b52	-11.66292
75	0xc00f2884	-2.2368479
76	0x40af5ef5	5.4803414
77	0x3f8c0333	1.0938476
78	0xc10c5034	-8.769581
79	0xc12779ef	-10.467269
80	0x40f938bd	7.788176
81	0xc0da544a	-6.822789
82	0xc0b795de	-5.7370443
83	0xc0dc6a40	-6.88797
84	0x41c912c9	25.134172
85	0xc02da283	-2.713044
86	0x4013ffe0	2.3124924
87	0xc2312cd0	-44.293762
88	0x40b979f8	5.796139
89	0xc0750451	-3.8283885
90	0xc10da710	-8.853287
91	0x414866cd	12.525098
92	0xc13b8e8b	-11.722301
93	0xc060af99	-3.5107176
94	0x4101a4f7	8.102775
95	0xc0483359	-3.128134
96	0xc09140b8	-4.53915
97	0xc02e6ab7	-2.7252634
98	0x400b7cb5	2.1794865
99	0xc0b364a7	-5.6060367
100	0xc00269a1	-2.037697
101	0xbffa5405	-1.9556891
102	0x40dc62e3	6.887071
103	0xc000cb70	-2.0124168
104	0x3d6a424d	0.057192136
105	0x419838bd	19.027704
106	0x3e8be885	0.27325836
107	0x41bcee71	23.616426
108	0xc0adf11b	-5.435682
109	0xc076978c	-3.8529997
110	0xc104788c	-8.27943
111	0xc00ccd1d	-2.2000191
112	0xc084078e	-4.125922
113	0x412f59b1	10.959397
114	0xc0dd147d	-6.908751
115	0xc0ed9aa2	-7.425126
116	0x4154f7a9	13.310464
117	0x414391dd	12.223111
118	0x409547ac	4.664999
119	0xc04cbdd4	-3.1990862
120	0xbd3d8d5e	-0.046277396
121	0x410947fb	8.580073
122	0x4081280d	4.036139
123	0x418189d9	16.192308
124	0xc12cde74	-10.80431
125	0xbfefe472	-1.8741591
126	0x4095bd2b	4.679342
127	0xc0fd337e	-7.9125357
128	0x42421e3b	48.529522
129	0x40684399	3.6291258
130	0x427318b4	60.774124
131	0x41fefaf9	31.872545
132	0x419941be	19.1571
133	0x42401309	48.01859
134	0xbf5b42f6	-0.8564905
135	0xc14ed8cc	-12.927929
136	0xc0d19711	-6.5496907
137	0xc024c961	-2.5747912
138	0xc186981e	-16.824276
139	0xc08c3ee3	-4.3826766
140	0x40e5b342	7.178132
141	0x40118b41	2.2741244
142	0xc0d5662b	-6.6687217
143	0xc10b9c1f	-8.7256155
144	0x40ba9569	5.8307385
145	0xc0a71bc7	-5.222141
146	0xc078523c	-3.8800192
147	0xc156cca1	-13.424958
148	0x41807ec2	16.061893
149	0xc0b25319	-5.5726438
150	0x40de1fcc	6.9413815
151	0xc21c6343	-39.096935
152	0xbfd4a505	-1.661286
153	0xbff3d6ea	-1.9049962
154	0xc10d7004	-8.839848
155	0x41416ac1	12.088563
156	0xc1308799	-11.033105
157	0xc0700b6e	-3.7506976
158	0x41872586	16.893322
159	0xc0dc4d19	-6.8844113
160	0x3ef135a0	0.47111225
161	0xbff5f33f	-1.9214858
162	0xbfc31707	-1.5241402
163	0xc0903f3f	-4.5077205
164	0xc0917153	-4.5450835
165	0xbf599a3c	-0.8500097
166	0x411df5e6	9.872534
167	0xc119354d	-9.575513
168	0x3f65f6bf	0.8982963
169	0x41b0a94a	22.08266
170	0x4035a499	2.8381712
171	0x41263e6f	10.390243
172	0xc1003d69	-8.014993
173	0xc0f046e6	-7.5086546
174	0xc104edcc	-8.308056
175	0xc090605a	-4.5117617
176	0xc09d4b45	-4.915438
177	0x410139c7	8.076606
178	0xc09eec35	-4.966334
179	0xc0df11dd	-6.9709306
180	0x412a7088	10.652473
181	0x4153bd20	13.233673
182	0x40cea859	6.4580503
183	0xc074c7d9	-3.8246977
184	0xbde0ec2e	-0.10982548
185	0x4018cf1f	2.3876417
186	0xc06d7e68	-3.7108402
187	0x41160e17	9.37844
188	0xc13720b5	-11.445485
189	0x3e1ccb7c	0.15311998
190	0x403a9883	2.9155586
191	0xc1166bce	-9.4013195
192	0x4277e039	61.968967
193	0x4038e647	2.889055
194	0x4234f0ea	45.235268
195	0x41b14ec9	22.16347
196	0x418c1060	17.507996
197	0x422af90e	42.743217
198	0xbda38717	-0.07984751
199	0xc00798f6	-2.118711
200	0xc0cbf1c8	-6.3732643
201	0xc0cc3f11	-6.3826985
202	0xc1566c2d	-13.40141
203	0xc00eb7a2	-2.229958
204	0x40c8d377	6.2758136
205	0x3fa9876b	1.3244451
206	0xc105eb58	-8.369957
207	0xc13a2441	-11.633851
208	0x40d08f4c	6.5174923
209	0xc0bf6bf5	-5.9819283
210	0xc0b523b8	-5.66061
211	0xc12342be	-10.2037945
212	0x41b1a79a	22.206837
213	0xbf76aa8f	-0.96354
214	0x40d20bc4	6.563936
215	0xc2234ef8	-40.827118
216	0x3cc310d4	0.023811735
217	0xc03f8d0e	-2.9929843
218	0xc1100129	-9.000283
219	0x41839cf6	16.451641
220	0xc144fb64	-12.311375
221	0xc052844a	-3.2893243
222	0x4183e096	16.484661
223	0xc0d6dc30	-6.7143784
224	0xc0e13c4e	-7.0386114
225	0xc00ef7cb	-2.233874
226	0xbf16247c	-0.5864942
227	0xc02873d5	-2.6320698
228	0xc0c5eeda	-6.1854067
229	0xbf540874	-0.828254
230	0x40eff3c1	7.498505
231	0x4021b70f	2.526798
232	0xbfbbe0fa	-1.4678032
233	0x41a2dfc3	20.359259
234	0x3f0a1ac6	0.53947103
235	0x41d3a8a1	26.457338
236	0xc07b58e7	-3.9273012
237	0xc0a5513e	-5.1661673
238	0xc1121941	-9.1311655
239	0xc0cafe04	-6.343508
240	0xc0daff8b	-6.843694
241	0x40c15aa2	6.0423136
242	0xc06b389c	-3.6753302
243	0xc1039bb3	-8.2255125
244	0x416185da	14.095179
245	0x412d1a51	10.818925
246	0x4070b1a9	3.7608435
247	0xc0440d2b	-3.0633037
248	0x3cf4a192	0.029862199
249	0x408d5bf5	4.417475
250	0xbfcf56b4	-1.6198335
251	0x411210c7	9.129096
252	0xc1585ada	-13.522181
253	0xbfbe7f5e	-1.4882619
254	0x40a0676e	5.0126257
255	0xc11d2601	-9.821778

l3.bias f4 [8]
0	0x418d4927	17.660719
1	0x419c7933	19.55918
2	0x3fc37071	1.5268689
3	0x40acede7	5.404041
4	0x40b9b086	5.8027983
5	0x3ffdb145	1.9819723
6	0x41c18699	24.190722
7	0x3e503a5e	0.20334765
