Linear_variable/no_backgroud_info/saved_weights/weights_30000_0.001_0.99_            128_True_0.35.pt (torch, 21803 bytes, 6 tensors)

l1.weight f4 [64, 2]
00000000: 56ca 0f3f 46e9 10c1 cd42 dfbf 396b dec0
00000010: e480 603e c874 00c0 8121 f53f c653 6fbf
00000020: bfe7 40c0 d3df 37c0 6c66 1a40 2b4f cc3c
00000030: ff16 8d40 7b45 34bf cb05 18be ada4 9b3f
00000040: 2c41 94bf a267 b9c0 f403 6c40 bddb 3741
00000050: 9fbf 3240 7201 abc0 60df adbf 9b1f 1f40
00000060: 5d85 f2bf 9efa cb3f 03b4 30c0 562d 4dc0
00000070: 59d9 2740 136d 4ac1 4f92 2fbe 2074 6f3f
00000080: 1d73 1e40 74d8 423c 3450 2c40 bd2c b2c0
00000090: c099 ae3f 11b0 d8bf d4be f2be ef45 16c1
000000a0: a0a5 333e 6ded 8c40 1b83 a3be a705 a1c0
000000b0: 69e1 2b3f 4980 843e eef3 7640 0512 b43d
000000c0: 864e e1bf 8e6a 26c0 92d2 bcc0 f7d5 24c0
000000d0: c797 963f 7107 07c0 6742 0c3f 6ca8 84c0
000000e0: 23ea dabf 6c2c c9be 8b31 bbbe 6378 fac0
000000f0: ca78 9a3d 53d4 f4be b804 913f 2acd 4040
00000100: 7c19 3840 ebbd 00c1 ea91 5cc0 7057 8940
00000110: 36d1 b740 1786 69c0 ec1a 6c40 827e 88c0
00000120: 5379 e73f b87e efc0 42e4 56c0 b1be 193f
00000130: f234 6341 9de6 1cc1 a320 c63f 7b7a 87bf
00000140: 4965 fcbe 75d6 1c3d 2186 993e 16e0 c8bf
00000150: 56db 0240 8b10 0abf a3b4 c7bf 1552 fc3f
00000160: 0a4f 1ec0 7e28 abbe effb 2cc0 93d3 aabf
00000170: b2db b7bf 834a 843d d7b5 3cc0 d6da d83d
00000180: 501b d2be ab14 3fbf eb29 ac3f e5dc 06bf
00000190: 648a 18bf 37ca 2ac0 3aea 8740 adc0 96c0
000001a0: cc5f b5bd 720f 6bc0 118c 8abe 66f4 3d41
000001b0: 8a40 19bf 65aa 7e3f a862 b2c0 328a 8241
000001c0: 12a2 ea3b 5cb8 fabf 5d6c 3340 58d5 17bf
000001d0: 09cd 2c3e c2eb ad3f 0e62 79bf 3ff7 69bf
000001e0: 49bf 683f 36fb 1f40 d55f 5cbf d17e 1640
000001f0: 233e 1040 7746 853c 8068 21c0 b4ab 5fbe
0.56168115 -9.0569515 -1.7442261 -6.9505887 0.21924168 -2.0071278 1.915085 -0.93487203
-3.0141447 -2.8730361 2.4125013 0.024940094 4.409057 -0.7041852 -0.1484596 1.215963
-1.1582389 -5.7939005 3.6877413 11.491147 2.7929456 -5.3439264 -1.3583794 2.486304
-1.8946949 1.5935857 -2.760987 -3.205892 2.6226408 -12.651629 -0.17145656 0.9353657
2.475776 0.011892427 2.6923952 -5.567961 1.3640671 -1.6928731 -0.47411215 -9.392074
0.1754365 4.4039826 -0.31935963 -5.03194 0.67140824 0.25879124 3.8586383 0.087924995
-1.7602088 -2.6002536 -5.9007044 -2.5755594 1.1765069 -2.1098292 0.5478882 -4.1455593
-1.7102703 -0.39291704 -0.36561236 -7.8271956 0.0754257 -0.4781824 1.1329565 3.0125222
2.8765554 -8.046367 -3.446406 4.2919235 5.7442884 -3.6488092 3.6891432 -4.265443
1.80839 -7.4842186 -3.3576818 0.60056597 14.200426 -9.806302 1.547871 -1.0584253
-0.49296024 0.03829046 0.29985145 -1.5693386 2.0446372 -0.5393149 -1.5602001 1.971255
-2.4735742 -0.3342933 -2.7028768 -1.3345817 -1.4363921 0.064595245 -2.9485986 0.10588615
-0.41036463 -0.7464091 1.3450292 -0.5268081 -0.5958617 -2.6685922 4.247342 -4.71102
-0.088561624 -3.6728177 -0.27059987 11.872168 -0.59864104 0.9947875 -5.574543 16.317478
0.0071604336 -1.9587512 2.803489 -0.5930991 0.1687509 1.3587573 -0.97415245 -0.9139289
0.9091688 2.4997077 -0.8608373 2.3514903 2.2537925 0.016268952 -2.5220032 -0.21842843

l1.bias f4 [64]
00000000: 0b84 f340 015b c7c0 86d6 f140 2b17 64c1
00000010: af63 c5c1 1122 44c1 6fdb ccc1 c48d 3d40
00000020: 3bdc 22c1 9d26 2d41 4783 b3bf 6395 09c1
00000030: f21b c440 ab7d 8cc1 b5f3 36c1 fd17 b1c0
00000040: a47f 47c1 8fce f040 969c 74c1 b3fb 70c0
00000050: 39d1 c440 50f3 1b42 6e17 96c0 5a32 9ec1
00000060: 3bb8 aec1 5685 b641 9a80 83c1 12af 9940
00000070: 6ab0 28c1 9677 4541 8039 1b41 b7de a5c1
00000080: 9216 9041 48a7 9fc0 b609 2542 0260 2042
00000090: 5c87 2740 68cd d4c0 4480 d3c0 56a8 50c1
000000a0: 5b1c 2bc0 2b51 7a40 98e6 4ec1 9879 8dc1
000000b0: eaa5 61c1 2f94 a1c1 8fa0 f1c0 c5e7 74c1
000000c0: 9e85 df40 e6c7 9941 bde5 81c1 58e6 1141
000000d0: eeef 95c1 9015 be41 2492 83bf f77e f73f
000000e0: 73cb 1dc1 80f7 87c1 6034 dc3f a126 17c1
000000f0: 8e70 88c1 6f83 7541 8143 37c1 fd84 5bc1
7.6098685 -6.229859 7.557437 -14.255656 -24.673674 -12.258317 -25.607145 2.9617777
-10.178767 10.821927 -1.4024438 -8.598971 6.1284113 -17.561361 -11.434499 -5.5341783
-12.468662 7.5252147 -15.288229 -3.7653625 6.15054 38.98761 -4.69036 -19.774586
-21.839956 22.815105 -16.437794 4.802621 -10.54307 12.341696 9.701538 -20.733747
18.01102 -4.98917 41.259483 40.093758 2.6176367 -6.650074 -6.6094074 -13.041098
-2.6736057 3.911204 -12.931297 -17.684372 -14.103006 -20.197355 -7.5508494 -15.306584
6.9850607 19.222607 -16.237177 9.118736 -18.742153 23.760529 -1.0278974 1.9335622
-9.86217 -16.99585 1.7203484 -9.446931 -17.054958 15.344588 -11.45398 -13.719968

l2.weight f4 [64, 64]
00000000: 3f1e bec1 8f43 933f fd3a 88c1 5f75 24c1
00000010: 8fe1 d6be 84c1 cac0 73f8 5741 3701 95c0
00000020: b010 fb3f 824a b9c0 325a b13f 62af 75c0
00000030: 58fb 79c0 66c6 2cc1 7965 7840 0850 81c1
00000040: dc07 d3c0 5ae1 b9c0 be87 4ec1 b648 39c0
00000050: 5423 dc40 af00 f2bf abbb eec0 2ffe 2fc1
00000060: dcf1 90c0 7aba 633f 7876 d0c0 859e 3fc1
00000070: ab88 8240 7d47 cec0 2d86 5b3f 9e02 2f40
00000080: 1f1f 1bc1 c2ae 1140 ef1d e340 3da1 a940
00000090: 4409 6fc1 fd0a 71c0 3731 2f40 021f 0cc1
000000a0: 7d09 3c3f 4b8b a4be 8e0d dc40 3878 88c1
000000b0: 7b05 a341 a5b2 9241 5d25 e040 858c 303f
000000c0: d914 823f 472b 38c1 627b 44c1 2dea e4c0
000000d0: 8fbf 7c3f 4bbb f5c0 0373 45c0 94fb 1cbe
000000e0: 94a9 24c1 089f 59c1 e1ba 8940 0e82 c941
000000f0: 2d28 1e40 7f5a a8c0 5ae5 adbf b5dc a941
00000100: 286a a7c1 2eec 50c1 4908 8fc0 aae3 aa3f
00000110: 265d 59c1 a0f9 b8c0 9a75 1941 48ad 9b40
00000120: 2d0d 10c2 561d 3141 9bfe 56c1 f8e9 09c1
00000130: bc07 5840 b348 63c0 084f 21c1 c829 b13f
00000140: c9c6 e3c0 48e1 d4c0 476b bec1 6abf afc1
00000150: bb63 c7c1 8ea4 0741 a7a7 2641 2666 4240
00000160: 4b3a 3cc0 5769 0c41 f7f9 c8c1 9207 3fc1
00000170: 72b4 b6c0 e9e5 72c1 4165 6040 3883 0bc1
00000180: e936 90c1 38c8 f53f 49dd 3440 59bb 4c40
00000190: 7b6e 9541 8273 8ac1 87ad bd40 da7d 38c1
000001a0: fd8d 02be 8faf cd3e b987 9cc1 08d2 05c1
000001b0: 25a0 1a40 c039 ee41 b92e afc1 51d9 43c1
000001c0: d7b9 81c0 9670 3cc0 7de9 65c1 bbaf 82c0
000001d0: dc52 ecc1 b585 88c0 aff0 5bc1 e733 b540
000001e0: a017 67c1 5672 8841 58ae a9c0 d35c e0c1
000001f0: 6f25 c3c0 e411 0a40 ed30 c7c1 87a2 b7c0
00000200: 502f 25c0 7b62 3cc1 4327 1bc2 3734 6b3f
00000210: 1bd8 af40 6226 87c0 c810 f1bf 2f47 03c1
00000220: 6669 8bc1 19ec fb40 6ec3 3a40 0101 1c40
00000230: c964 b5c1 7b5b aac0 6009 f4be 8477 5bc2
00000240: aa16 06c1 6b11 8cc1 c055 37c1 084d b840
00000250: e9dd a840 8e12 d13f 499f a7c1 3006 a640
00000260: e64e 91c0 c000 86c1 6815 06c1 c439 e9c1
00000270: 326f 88bf 047c 95c0 83e3 14c1 38aa 5440
00000280: 500a 83c1 8379 30c0 2a8a 8940 09f7 dc3f
00000290: e2bb 8ac1 9950 0fc1 8810 efbf b652 d13f
000002a0: b757 65c1 7dc5 23c2 8201 2f41 d76c 46c0
000002b0: fa71 0641 c668 a240 2930 db40 b1ab 32c1
000002c0: ec92 2fc0 4058 5c3f ca49 11c1 aff8 1140
000002d0: 96bb f2c0 00ed 7840 2598 4b3f 7fe6 f9bf
000002e0: b365 62c1 2061 2ac1 7035 67c1 5eaa fd40
000002f0: 95c5 63c0 e157 1c41 b0eb dec0 19dd e540
00000300: 2ddb 683f e8ee fb3e b5ae fcc1 8b33 cac0
00000310: bf1d 9ebd 2616 bfc0 8164 4bc1 be42 64c0
00000320: d08e bec1 a077 6240 ced3 5cc0 506a f0c0
00000330: 4ae7 f540 26a3 f0c0 d5ad 4741 bd87 8ac1
00000340: e700 4ac1 6f5a abc1 38f6 c5c1 0f15 89c0
00000350: ad2c 99c0 d67a 3b40 e5d5 72bf 2a99 45c0
00000360: 2c4a 19c2 ba13 8c40 bb1b 89c1 875f 0140
00000370: eb12 aac0 f9f4 83c1 861d 6040 6a4c 6ec0
00000380: abd5 0dc1 3407 cec1 e7ec 47bf 7371 24bf
00000390: 4b81 cec0 5023 a1c1 e725 6e41 213a 65c1
000003a0: 9886 b540 ccb9 8ac1 8ef4 86c1 c77f 89c0
000003b0: 85b9 1541 b518 5f41 c561 9fc1 b5dc 86c1
000003c0: 58ab 3ec1 380b 8640 9a3e 9bc0 3972 4bc1
000003d0: a817 c7c1 cfc5 b1c0 ab65 a8be 6db7 44c0
000003e0: 327c b3c1 9d6e ae3f ae3a 60c1 1bec b9c1
000003f0: a62b 0741 39fd 8940 6bc7 64c1 f233 1042
-23.764769 1.1504992 -17.028803 -10.278655 -0.41968963 -6.3361225 13.498157 -4.6563983
1.9614468 -5.790345 1.385565 -3.8388295 -3.9059658 -10.798437 3.8811934 -16.164078
-6.5947094 -5.8087587 -12.90814 -2.895063 6.8793125 -1.8906459 -7.4604087 -10.999557
-4.529524 0.88956416 -6.5144615 -11.976201 4.079183 -6.4462266 0.8575161 2.7345347
-9.695098 2.2762914 7.097404 5.3009324 -14.939762 -3.7662957 2.7373788 -8.75757
0.7345198 -0.32137522 6.8766546 -17.0587 20.377676 18.337229 7.004561 0.68964416
1.0162612 -11.510566 -12.280123 -7.153586 0.98729795 -7.679113 -3.0851448 -0.15330344
-10.291401 -13.601326 4.3040624 25.188503 2.4712021 -5.261047 -1.3585618 21.232767
-20.926834 -13.057661 -4.4697614 1.3350728 -13.585241 -5.780472 9.591211 4.8649025
-36.012867 11.069662 -13.43716 -8.619621 3.375472 -3.5513122 -10.081795 1.3840876
-7.118016 -6.6525 -23.802382 -21.968464 -24.923697 8.4776745 10.415931 3.0374846
-2.941058 8.775718 -25.122053 -11.939348 -5.709527 -15.18113 3.50618 -8.719536
-18.026812 1.9201727 2.8260062 3.1989348 18.678946 -17.3064 5.9274325 -11.5307255
-0.12749477 0.40173003 -19.56627 -8.363777 2.4160244 29.778198 -21.897814 -12.240556
-4.0539355 -2.9443717 -14.369504 -4.0839515 -29.540459 -4.2663217 -13.746261 5.6625857
-14.443268 17.055828 -5.302532 -28.045324 -6.0983195 2.157342 -24.89889 -5.73859
-2.5810127 -11.774043 -38.78834 0.9187655 5.49513 -4.2234354 -1.8833246 -8.204879
-17.426464 7.8725705 2.918178 2.4375613 -22.674212 -5.323667 -0.47663403 -54.866714
-8.380533 -17.508505 -11.458435 5.759403 5.2770886 1.6333787 -20.952776 5.1882553
-4.540881 -16.750366 -8.380226 -29.153206 -1.0658934 -4.6713886 -9.305545 3.3228893
-16.380035 -2.7574165 4.2981157 1.7262889 -17.34174 -8.957177 -1.867692 1.6353366
-14.333915 -40.94286 10.937868 -3.100393 8.402826 5.0752897 6.849629 -11.166917
-2.7433424 0.8607216 -9.080515 2.2808034 -7.5853987 3.8894653 0.7952903 -1.9523467
-14.149829 -10.648712 -14.450546 7.927047 -3.5589345 9.771455 -6.9662704 7.1832395
0.90959436 0.49205709 -31.585306 -6.318792 -0.07720517 -5.9714537 -12.712037 -3.5665736
-23.819733 3.5385513 -3.4504275 -7.5129776 7.6844835 -7.5199156 12.479939 -17.316278
-12.62522 -21.419157 -24.745224 -4.2838206 -4.7867036 2.9293723 -0.9485763 -3.0874734
-38.322433 4.377408 -17.13854 2.0214555 -5.3148093 -16.494616 3.501802 -3.723414
-8.864665 -25.753517 -0.7809586 -0.6423561 -6.453283 -20.142242 14.8842535 -14.326692
5.67268 -17.340721 -16.869411 -4.296848 9.357793 13.943532 -19.922739 -16.857767
-11.916832 4.1888695 -4.851392 -12.715386 -24.88655 -5.5553966 -0.32890067 -3.0736954
-22.435642 1.3627506 -14.014326 -23.240286 8.448156 4.312161 -14.298686 36.050728

l2.bias f4 [64]
00000000: 0216 7c41 4c7e ec41 3eb1 6f41 d47c ce41
00000010: 519c 623f 4e63 073e 8f4b 46c0 6c50 8141
00000020: 227f 9d41 8526 af41 5376 2e41 05a1 6f41
00000030: 1071 2c42 15fa 6b41 256f 7742 2d4b d941
00000040: ef0e 03c0 28d9 67c0 07d3 0842 7a03 9340
00000050: 34f8 4540 0f09 55c1 28df 1e41 8e44 f040
00000060: 413a 3e41 a929 efc1 1fd6 e341 7b10 4341
00000070: 6e65 a0c0 2457 8941 593d dbc0 e525 2c42
00000080: 784f 6441 022a 2c41 a72b b940 41ff 13c0
00000090: a6ce 0a42 7d86 5341 d6d3 98c2 639c 0d3f
000000a0: 0a8e 0342 3e7a 4942 912a 5841 5ff0 d540
000000b0: 259c d341 a456 e8c1 ae03 1f41 4c2b b740
000000c0: 74c4 f440 49cb 0d42 08e3 c6c1 94f0 d541
000000d0: 20ed 96bd d215 1a41 d711 d43f c27f 9241
000000e0: aedd 4541 e43b 0b41 582f 8142 2f46 6840
000000f0: 0d44 5ec1 4158 46c1 a76b 58c0 ef26 283f
15.755373 29.561668 14.980772 25.810951 0.8851977 0.13221475 -3.0983617 16.164268
19.687077 21.893808 10.903888 14.976811 43.110413 14.748555 61.85854 27.161707
-2.0477865 -3.6226292 34.20608 4.5941744 3.093274 -13.314712 9.9294815 7.5083685
11.889222 -29.895342 28.479551 12.191524 -5.0123816 17.16755 -6.8512387 43.037006
14.269402 10.760256 5.7865787 -2.3124545 34.701805 13.220334 -76.41374 0.5531675
32.88871 50.369377 13.510392 6.685592 26.451242 -29.042305 9.938398 5.7240353
7.648981 35.44852 -24.860855 26.74247 -0.07369447 9.630327 1.6567944 18.312382
12.366621 8.702122 64.59247 3.6292837 -13.891614 -12.396546 -3.3815706 0.6568441

l3.weight f4 [8, 64]
00000000: 18bf 0ac1 aea4 0e41 2273 fac0 6d43 88c0
00000010: a89e 2abf 9b8a c640 f86f 8841 2522 0dc1
00000020: 419c 9b40 4f99 20c1 62f1 39c1 0ba0 a8c0
00000030: b4d0 d2c0 e619 1ec1 3058 b7c0 7884 eb40
00000040: ffc2 d440 353e 2fc1 2e0c 1ec1 9405 4bc1
00000050: 17ed 58c1 bf95 7740 8a1d 15c1 6b6f 3cc1
00000060: 0d0e 13c1 9245 143f 6af0 d1c0 514e d8c0
00000070: 89e6 0bc1 0a2f 57c1 ac83 f3c0 f83f a0c0
00000080: 2d8f 6b41 be5e fac0 7002 0dc1 f720 17c0
00000090: a1c7 30c1 1ae6 41c1 21c2 df3e 7db2 83c1
000000a0: ee24 bec0 bfc2 71c0 7569 56c1 2070 2fc1
000000b0: 054b abc0 21cf 0ec0 30c4 3fc1 b5d3 71c0
000000c0: 5c67 973f c136 503f 46d5 273f 91ba ea40
000000d0: 4ec7 713d a6a5 31c1 1b23 2fc1 1453 5ec1
000000e0: 5658 4dc0 dbec 32c1 71a7 30c0 1a2c 65c1
000000f0: 111b 8d40 c43e 7fbe 733e f3c0 9370 11c1
00000100: cc8d c4c0 13f0 3141 5b75 f9c0 c5aa 74c0
00000110: 02f9 a5be 6f18 9e40 fb68 5841 3724 fac0
00000120: 0537 8bbf ed26 06c1 5df6 40c1 66dd f8c0
00000130: 4664 e8c0 fa7c 2ac1 7d8a 8ec0 8a1a 0441
00000140: 098e 0a41 d356 afc0 c374 24c1 3f77 16c1
00000150: 09c6 22c1 e2c1 ab40 3ca8 c1c0 7989 38c1
00000160: 3947 e8c0 5b0f 94bf 465c dbc0 4da2 f8c0
00000170: 2468 09c1 adbe 51c1 0a6c ebc0 1422 cdc0
00000180: 4cae 2b41 a2d5 2dc1 5bc6 dcc0 1d06 5440
00000190: afb2 3bc1 412d 5ac1 7f8f a33f 990c 5cc1
000001a0: 28fc a3c0 4868 c1c0 afd8 a0c1 72fb 13c1
000001b0: 565e c8bd 6797 53bf b8e8 4dc1 1902 a9c0
000001c0: f50c 1840 6332 b2bf d505 9c3e 1759 e040
000001d0: 4c85 c73d 8bc8 25c1 cd19 18c1 446c 39c1
000001e0: 16a8 f7c0 3975 4fc1 2a12 3bc0 2705 71c1
000001f0: 8345 ea3f 3ab2 0f3f dbf7 61c0 a0bb 1ac1
00000200: c76b 49c1 a025 3441 1b32 c6c0 8a33 aac0
00000210: f9ac 81bf 2d1d 2640 b803 3941 59de 0ac1
00000220: 78be 4640 06e8 11c1 1127 43c1 9d7d 6ec1
00000230: 574b cbc0 dac6 d7c0 b351 9fc0 c62a e140
00000240: 2268 aa40 8f63 0bc1 65be 2cc1 69a2 0cc1
00000250: 3f07 41c1 48ae 9240 6e0f 8cc0 7794 48c1
00000260: 60de d8c0 c665 5b3e 8ac0 dfc0 7ef6 a0c0
00000270: da8d f9c0 1ed6 4fc1 5599 99c0 ef4c c4c0
00000280: 69f4 1741 0bb5 0cc1 97a6 14c1 cd9c f040
00000290: 51a8 33c1 2c6f 15c1 96b0 fa3e 3636 4fc1
000002a0: 1a62 aec0 f225 abc0 ae58 80c1 08ba d4c0
000002b0: ea9c bdc0 c730 b6bf 4664 99c1 0882 f8c0
000002c0: 1486 c7bf e0e1 bc3f 2372 333f f72a e840
000002d0: ec20 9ebd d50f c5c0 f81c 15c1 25ad cec0
000002e0: 88bd ecc0 0b2c 62c1 0ee9 1ac0 d08c 30c1
000002f0: f334 ba3f 6f98 a93e 51af 37c0 4474 08c1
00000300: f83a 0dc1 7fe2 0c41 ef12 fbc0 ed19 ecc0
00000310: 436d db3f 1a0b 8040 9373 3e41 2f48 ecc0
00000320: 28da 5640 4c3d 22c1 b376 1bc1 d3e6 01c1
00000330: b307 f1c0 f82c cac0 de3d b5c0 1dc5 f340
00000340: 6ae1 a940 bff3 49c1 4d2c 2fc1 2316 41c1
00000350: 97fc 2bc1 c5c1 3d40 144d 8cc0 0595 51c1
00000360: 7636 0ec1 07d9 ff3f ddef c2c0 05b9 bac0
00000370: d8eb 1cc1 56d2 46c1 2052 aac0 7b9d c0c0
00000380: a76a 9741 d6d3 93c0 12c1 0dc1 4e52 7e40
00000390: 79a9 3ac1 4b6a 2ac1 9910 05bf 519b 6cc1
000003a0: 6a0c c3c0 ba49 48c0 d6dc 4fc1 91ef dfc0
000003b0: ef8f c13e 4a3c d9bf 0caf 81c1 ef91 18c0
000003c0: 394a bbbf b551 1ebf af73 ec3e 2b7b 0141
000003d0: d483 dfbb b1fe 06c1 31c0 36c1 bae6 e7c0
000003e0: ec80 b1c0 3fa6 59c1 c8d8 05c0 7fb8 3ac1
000003f0: 4853 af40 03d9 033f 486b eac0 29a5 06c1
-8.671654 8.915205 -7.8265543 -4.2582307 -0.6664834 6.2044196 17.054672 -8.820836
4.862824 -10.037429 -11.621431 -5.2695365 -6.5879765 -9.881323 -5.729515 7.3599205
6.648803 -10.952687 -9.877974 -12.688862 -13.557883 3.8685148 -9.319712 -11.777202
-9.19093 0.57918656 -6.5605974 -6.75956 -8.743783 -13.448984 -7.609823 -5.0078087
14.722455 -7.824065 -8.813095 -2.361387 -11.048738 -12.118677 0.43702796 -16.462152
-5.942008 -3.7775114 -13.400746 -10.964874 -5.3529077 -2.2313921 -11.985397 -3.7785466
1.1828418 0.8133355 0.65559804 7.335274 0.059027962 -11.1029415 -10.946071 -13.895283
-3.2085166 -11.182826 -2.7602198 -14.323267 4.409554 -0.24926287 -7.601373 -9.089984
-6.142309 11.121112 -7.7955756 -3.822923 -0.3241654 4.9404826 13.52563 -7.8169208
-1.0876166 -8.384503 -12.060147 -7.777026 -7.2622404 -10.655512 -4.4544053 8.256479
8.659677 -5.4793487 -10.278506 -9.404113 -10.173348 5.3674173 -6.0517864 -11.533563
-7.258694 -1.1567186 -6.855014 -7.769812 -8.587925 -13.109052 -7.3569384 -6.41041
10.730053 -10.864656 -6.8992133 3.3128731 -11.731124 -13.636048 1.2778167 -13.753076
-5.124531 -6.0439796 -20.105803 -9.248888 -0.09783618 -0.82652897 -12.869316 -5.281506
2.3757908 -1.3921627 0.304732 7.010875 0.09742221 -10.361461 -9.506299 -11.588932
-7.7392683 -12.966119 -2.9229836 -15.063758 1.8302463 0.5613133 -3.530753 -9.670807
-12.588813 11.259186 -6.1936164 -5.3187914 -1.0130912 2.5955307 11.563408 -8.679284
3.1053753 -9.119146 -12.197038 -14.905667 -6.3529468 -6.743024 -4.978723 7.0364714
5.3252115 -8.711806 -10.796483 -8.789651 -12.064269 4.5837746 -4.3768835 -12.536246
-6.7771454 0.21425542 -6.9922533 -5.0300894 -7.798566 -12.989775 -4.7999673 -6.1343913
9.49717 -8.7942 -9.290671 7.5191407 -11.228593 -9.339642 0.4896285 -12.950735
-5.4494753 -5.348382 -16.0433 -6.647709 -5.9254045 -1.4233636 -19.173962 -7.765873
-1.5587792 1.4756432 0.70096034 7.2552447 -0.07721123 -6.1581826 -9.319572 -6.458636
-7.398136 -14.135753 -2.4204745 -11.034378 1.4547409 0.3312411 -2.8700755 -8.528385
-8.826897 8.805297 -7.846061 -7.378165 1.7142719 4.001355 11.903216 -7.3838115
3.3570652 -10.139965 -9.716479 -8.118854 -7.53219 -6.3179893 -5.663802 7.6178117
5.3087664 -12.622008 -10.948316 -12.067904 -10.749167 2.9649518 -4.384409 -13.098882
-8.888296 1.9988106 -6.09178 -5.8350854 -9.807579 -12.426352 -5.322525 -6.0192237
18.927076 -4.619609 -8.859636 3.9737735 -11.666375 -10.65095 -0.5197845 -14.787919
-6.0952654 -3.1295 -12.991415 -6.997994 0.37805125 -1.6971524 -16.210472 -2.383907
-1.4632026 -0.61843425 0.4618201 8.09257 -0.006821135 -8.4371805 -11.421922 -7.246915
-5.5469875 -13.603087 -2.0913563 -11.670043 5.478916 0.5150301 -7.325596 -8.415322

l3.bias f4 [8]
00000000: 349f 2bc2 635d 29c2 8ce2 4fc2 2941 59c2
00000010: 7a6a 50c2 534d 44c2 0775 2cc2 3206 39c2
-42.90547 -42.341198 -51.971237 -54.313633 -52.10398 -49.075512 -43.114285 -46.25605
