Weights/weights_30000_0.001_0.99_128_True_0.35.pt (torch, 21803 bytes, 6 tensors)

l1.weight f4 [64, 2]
0	0x3f61c03a	0.8818394
1	0xbe383730	-0.17989802
2	0x3f5f8d43	0.87324923
3	0xbeb5085e	-0.35357946
4	0xc0220b51	-2.5319407
5	0xbeb3b584	-0.35099423
6	0x3fcb6644	1.5890584
7	0x3e5393d2	0.20661858
8	0xbecf583c	-0.40497005
9	0x3f5a91b7	0.85378593
10	0xbf9363f5	-1.151488
11	0x3fa89c5a	1.3172715
12	0x3fec2d1d	1.8451267
13	0x3e936b9e	0.28793043
14	0xbf2945f4	-0.66122365
15	0x3fa61b54	1.297709
16	0xbffddbf7	-1.9832753
17	0x3fd3e189	1.6553203
18	0x3f65a9e1	0.8971234
19	0x3dd22878	0.10261625
20	0x3f1ca23d	0.61185056
21	0xbd9673fa	-0.073463395
22	0x3f40189b	0.75037545
23	0xbe7f6ce0	-0.24943876
24	0x400faa2c	2.2447615
25	0x3e9b4854	0.3032862
26	0xc04483f1	-3.070553
27	0xbedabde6	-0.42723006
28	0xc0ba6438	-5.8247337
29	0xbf4f1812	-0.80896103
30	0xbf304430	-0.68854046
31	0x3fbed380	1.4908295
32	0x3f5494f2	0.8303977
33	0x3da22672	0.07917489
34	0x3ef30886	0.4746744
35	0xbea54700	-0.3228073
36	0xbfa46331	-1.2842771
37	0x3faa31c7	1.3296441
38	0xbfab6381	-1.3389741
39	0xbe54f681	-0.20797159
40	0x40049d17	2.072088
41	0x3e92e395	0.28689256
42	0x3f89bcb3	1.0760711
43	0x3e1fedce	0.15618059
44	0x3f84c1c3	1.0371631
45	0x3f316146	0.6928905
46	0xc04cd23b	-3.2003314
47	0xbec4061b	-0.38285908
48	0x3efe19b4	0.49628985
49	0xbe723b14	-0.23655349
50	0x3f4bbd88	0.79586077
51	0xbed1550d	-0.408852
52	0xbf39a308	-0.7251439
53	0x3e827bc0	0.2548504
54	0x3fdb21ee	1.711973
55	0x3e8a80a2	0.27051264
56	0xbff26c35	-1.8939272
57	0xbe83b3c3	-0.25723085
58	0xbfa20c5a	-1.2660019
59	0xbec7edc8	-0.390486
60	0x3fbff93a	1.4997933
61	0x3e448473	0.1919115
62	0x3f46470d	0.77452165
63	0x3dd575ca	0.10422857
64	0x3fb6194c	1.422647
65	0x3e483d2c	0.19554585
66	0xbfe00545	-1.7501608
67	0xbe7b7483	-0.24556164
68	0xc046d138	-3.1065197
69	0xbee1311e	-0.43982786
70	0xbf9f6a50	-1.2454319
71	0xbf9d2fb6	-1.2280185
72	0xbf23848c	-0.63874125
73	0x3e72481c	0.2366032
74	0x3fe3681a	1.7766144
75	0x3e8268fb	0.2547072
76	0x3f9b3704	1.2126164
77	0x3f45ca9f	0.772623
78	0x3f4309ef	0.7618703
79	0xbff7c507	-1.9357003
80	0xc05195f6	-3.274778
81	0xbee488e5	-0.44635692
82	0xbf02ea70	-0.51138973
83	0x3e837480	0.2567482
84	0x3ffbe5b4	1.9679475
85	0x3e916e0c	0.28404272
86	0x3f8b1302	1.0865176
87	0xbea5468a	-0.3228038
88	0xbf2d22d0	-0.67631245
89	0x3f4716d2	0.77769196
90	0xbf927bcd	-1.1444031
91	0xbdb12c59	-0.08651037
92	0xc03bdec5	-2.9354718
93	0x3e81b8ed	0.253364
94	0x3f9fe30f	1.2491168
95	0x3ec605c4	0.38676274
96	0x3fa0b0cc	1.2553954
97	0x3e7a32da	0.24433461
98	0x3f666a43	0.9000589
99	0x3e45e9ab	0.19327419
100	0x3f1f5277	0.62235206
101	0xbcb8ac57	-0.022543116
102	0x3f4c9439	0.7991367
103	0x3dbbefce	0.091765985
104	0xc031004a	-2.7656426
105	0xbed25b36	-0.41085213
106	0x3f55266c	0.8326175
107	0x3e65570b	0.22396486
108	0xbf808992	-1.0041983
109	0xbdfc434c	-0.12317523
110	0x3fec2ac3	1.845055
111	0x3e84a413	0.2590643
112	0xbf34e817	-0.7066664
113	0x3f18b765	0.5965484
114	0xc0d9786d	-6.7959504
115	0xbf6ce521	-0.9253712
116	0xc03790bd	-2.8682091
117	0xbed840bb	-0.42236885
118	0x3f538d12	0.8263713
119	0xbceefd2d	-0.029173458
120	0xbf5b31f1	-0.8562308
121	0x3eadf7a6	0.33978003
122	0xc05426dd	-3.314872
123	0xbeee585a	-0.46551782
124	0xbf732c6b	-0.9498965
125	0x3f0f3ade	0.559492
126	0xbffc4ad3	-1.9710335
127	0xbe881897	-0.2658126

l1.bias f4 [64]
0	0xc0965eb9	-4.699063
1	0xc0c16fcd	-6.0448976
2	0xc0b2cd94	-5.587595
3	0xc0a435d8	-5.1315727
4	0x40a37543	5.108064
5	0xc125126a	-10.316996
6	0xbf35bbdb	-0.7098977
7	0xbfd365c9	-1.6515437
8	0xbf99cf8c	-1.2016463
9	0x409bee96	4.8728743
10	0xc05c68a1	-3.443886
11	0xc09d58b8	-4.91708
12	0xc0be6788	-5.950138
13	0xc0635a5f	-3.5523908
14	0xbff6fc14	-1.9295678
15	0xc0019618	-2.024786
16	0x40972640	4.723419
17	0x3f63f369	0.8904329
18	0xc10cda6b	-8.803325
19	0xc0d73295	-6.7249246
20	0xc0a0dd59	-5.02702
21	0xbfe9e45a	-1.8272812
22	0x401f6853	2.4907424
23	0xc01fe401	-2.4982913
24	0xc067b142	-3.620194
25	0xc0807437	-4.0141864
26	0xc09c6eeb	-4.88854
27	0x408daa7e	4.427062
28	0xc0966ec0	-4.7010193
29	0x40dd7f70	6.9218063
30	0xbefa05d0	-0.4883256
31	0xbfc0a719	-1.5050994
32	0xc048fb4f	-3.1403387
33	0xc0c765e5	-6.2311883
34	0xc0994d10	-4.790657
35	0x40884fa0	4.25972
36	0x40d2a3ee	6.582511
37	0xc0a0551f	-5.0103908
38	0x3f63aec3	0.8893854
39	0x404e09d2	3.2193494
40	0xbfed41d8	-1.8535719
41	0xc071c4aa	-3.7776284
42	0xbf8a00a6	-1.0781448
43	0xc0d19712	-6.549691
44	0x40820685	4.063296
45	0xc0c556c0	-6.1668396
46	0x40f5dd21	7.6832433
47	0x408b8136	4.359523
48	0x404ebbbc	3.2302084
49	0x3e6d5476	0.2317675
50	0xc04d397e	-3.206634
51	0xbf856a94	-1.042315
52	0xc0a45ba1	-5.136185
53	0x3ff0d094	1.8813653
54	0xc0b45cff	-5.636352
55	0xc0b19507	-5.549442
56	0xc0bbd60c	-5.869879
57	0xbe520dd6	-0.2051309
58	0xc09dc484	-4.9302387
59	0xc08938bf	-4.288177
60	0xc0bf8563	-5.9850326
61	0xc08d61cc	-4.418188
62	0xc0e99193	-7.2990203
63	0xbff70ecd	-1.9301392

l2.weight f4 [64, 64]
0	0x40bd05a6	5.9069395
1	0x40230a3f	2.5475004
2	0x40dc3dab	6.882528
3	0x412b2e4c	10.698803
4	0xc012cfc5	-2.2939312
5	0x3f90f264	1.1323972
6	0x404cf385	3.2023633
7	0x3faf1c85	1.3680578
8	0xbea31840	-0.3185444
9	0xc0455fd7	-3.0839746
10	0x40848d63	4.142259
11	0x40f1bdd5	7.554423
12	0x40c71f30	6.222557
13	0x408a40ae	4.3203955
14	0x3e6a31f2	0.22870615
15	0x3f85a878	1.0442038
16	0xc03c5018	-2.9423885
17	0x3f33ab54	0.701833
18	0x3ea12269	0.31471565
19	0x411f94b2	9.973803
20	0x40990227	4.7815127
21	0x405443ab	3.3166301
22	0xbe74e388	-0.23914921
23	0x407eaff1	3.9794886
24	0x3f6b5516	0.91926706
25	0x408c1613	4.3776946
26	0x4020ed02	2.5144658
27	0xc02d9507	-2.712221
28	0x40b5672e	5.668845
29	0xc0222de4	-2.534051
30	0x4027f9f3	2.6246307
31	0x4061d48a	3.5285974
32	0x40266567	2.599939
33	0x41091ee6	8.570044
34	0x40955c4a	4.6675158
35	0xbfe57880	-1.7927399
36	0xc03f2e82	-2.9872136
37	0x4108c091	8.547013
38	0x3fccab24	1.5989728
39	0xbf936e8f	-1.1518115
40	0x403a959e	2.915382
41	0x3e9b9e86	0.3039438
42	0x405be776	3.4360023
43	0x41012167	8.070655
44	0xbf76c07e	-0.9638747
45	0x40e362ca	7.105809
46	0xbfdc502b	-1.7211965
47	0xc022fc2e	-2.5466418
48	0xbfa01848	-1.250741
49	0x4039903b	2.8994281
50	0x40380e4c	2.8758726
51	0x4031b573	2.7766998
52	0x4057a691	3.3695414
53	0x3e8400b1	0.25781778
54	0x40d88677	6.766414
55	0x40b28b04	5.5794697
56	0x4024ca14	2.5748339
57	0xbfbfd532	-1.4986937
58	0x40c7478c	6.2274837
59	0x40967557	4.7018237
60	0x3eb47d7a	0.3525198
61	0x408ed553	4.4635406
62	0xbf3d4f94	-0.7394955
63	0x405cdca4	3.4509668
64	0x40c64898	6.1963615
65	0x40d17d38	6.5465355
66	0x40ff7d8b	7.984075
67	0x40523b89	3.2848837
68	0x402ab328	2.6671848
69	0x4115144a	9.317453
70	0x3f93d6cf	1.1549929
71	0xbf4d04d5	-0.800855
72	0xbf80b207	-1.005433
73	0xbee6f818	-0.45111156
74	0xc11a2233	-9.633349
75	0xc1094d27	-8.581336
76	0x411c87ad	9.783124
77	0x40d23cba	6.569913
78	0x409e8bb3	4.954553
79	0x3f167ada	0.58781207
80	0xbee1145a	-0.4396084
81	0x3fa141a9	1.2598163
82	0x4116ca07	9.424323
83	0x411489c0	9.28363
84	0x40cc4692	6.3836145
85	0x409bb4ba	4.8658113
86	0xc02e0aa2	-2.719399
87	0x40c839db	6.2570624
88	0x4101418d	8.078504
89	0x408ee7c9	4.465794
90	0xbf5fdc5b	-0.8744561
91	0xbe5b6465	-0.21425016
92	0x40e2eb65	7.0912347
93	0x3fb8822f	1.4414729
94	0x3f485716	0.7825788
95	0x40431baf	3.0485647
96	0x3fbfbe6c	1.4979987
97	0x410e30a4	8.886875
98	0x40f4fbcf	7.6557384
99	0x3fe88f21	1.816868
100	0x3f3e4d75	0.7433694
101	0x41011ed0	8.070023
102	0x40142266	2.3145995
103	0xbf001ed8	-0.50047064
104	0x40cf16c0	6.471527
105	0x4008cdc8	2.13756
106	0xbf953d6a	-1.1659367
107	0xc0589fea	-3.3847604
108	0x402ffb25	2.7497036
109	0x40cb1dc2	6.3473825
110	0x3fdded7d	1.7338101
111	0xbeed3b6c	-0.46334398
112	0xc00e9c83	-2.2283027
113	0xc1293217	-10.574729
114	0xc0e8e20d	-7.277594
115	0xbe1d3f78	-0.15356243
116	0x40d70888	6.7197914
117	0xbe28eae8	-0.1649586
118	0x40ae229a	5.441724
119	0x410e4e6a	8.894144
120	0x41445111	12.269792
121	0x4090a534	4.5201664
122	0x40ffe14a	7.996251
123	0x3f021ff9	0.50830036
124	0x4012d0a3	2.2939842
125	0x40d0abcd	6.520972
126	0x40ee260c	7.4421444
127	0x40c3c62c	6.117941
128	0xbd3f2fd2	-0.046676464
129	0xbd836799	-0.06416244
130	0x40439334	3.0558596
131	0x404be391	3.1857646
132	0xc01ec6d7	-2.4808862
133	0x3f231ab0	0.63712597
134	0x3fb4d558	1.4127607
135	0x3f140aa0	0.5782871
136	0xbf7b6f07	-0.9821629
137	0xc0e737d1	-7.2255635
138	0x40523f08	3.2850971
139	0x3f2ee527	0.6831841
140	0x3fbfad45	1.4974753
141	0x3fe6e6d6	1.8039196
142	0x3eb02fa7	0.34411356
143	0x3e7c48be	0.24637124
144	0xc0f1bc9e	-7.5542746
145	0xc02203a8	-2.5314732
146	0x3e009448	0.12556565
147	0x409788bc	4.735441
148	0x3fd3e544	1.6554341
149	0x3ff87669	1.9411136
150	0xbf9fdcfd	-1.2489315
151	0x4001803d	2.023452
152	0xc020a6bc	-2.5101767
153	0xbff5e516	-1.9210536
154	0x3fa9ab50	1.3255405
155	0xc0e4ab53	-7.1459136
156	0x40049e4c	2.0721617
157	0xc00e9229	-2.227671
158	0x3fe58f70	1.7934399
159	0x4013be57	2.3084924
160	0x3fdb2609	1.7120982
161	0x404e5b38	3.2243176
162	0x3fd06793	1.6281608
163	0xc045c95e	-3.0904155
164	0xc0ae9168	-5.45525
165	0x401918c2	2.392136
166	0x3f99a2f5	1.2002856
167	0xbf9e3bf1	-1.2362043
168	0x3fd9a504	1.7003484
169	0x400ab53b	2.1673114
170	0x3fbec0d7	1.49026
171	0x402c53c9	2.6926138
172	0xbfe5707a	-1.792495
173	0x4100fcdc	8.061733
174	0xc028a75e	-2.6352153
175	0xc0c3653b	-6.106107
176	0xc083f05a	-4.12309
177	0x3fd14dda	1.6351883
178	0x4007d804	2.1225595
179	0x3fc39f43	1.5282978
180	0x402768a0	2.6157608
181	0xbfc88372	-1.5665114
182	0x410e311c	8.88699
183	0x3e3b3364	0.18281323
184	0xbf2574c9	-0.64631325
185	0xc0310cfd	-2.7664177
186	0x4028fde0	2.6404953
187	0x40012c59	2.0183318
188	0x3f9ced51	1.2259923
189	0x402bf333	2.6867187
190	0xbf6751a1	-0.9035893
191	0x3f986f7b	1.1909021
192	0x3e807823	0.25091657
193	0xc0086e9c	-2.131751
194	0x4099814f	4.7970347
195	0x40649f21	3.5722125
196	0xc045727f	-3.0851133
197	0x3e0777e5	0.1322933
198	0x3f67bbd4	0.9052098
199	0xbfe99c9d	-1.825092
200	0x3f85841d	1.0430943
201	0xc108d89e	-8.552885
202	0x4032a831	2.7915156
203	0x3de08588	0.10962969
204	0x3f5bf3a8	0.85918665
205	0x403404c9	2.812792
206	0x40136d13	2.3035324
207	0x3e8a898b	0.27058062
208	0xc104e75c	-8.306484
209	0xbf329411	-0.6975718
210	0xc08724bd	-4.2232347
211	0x40ec130e	7.377326
212	0x3f484b10	0.78239536
213	0x3effacb6	0.49936455
214	0xc0092b7e	-2.1432796
215	0x401dbfd5	2.4648335
216	0xc022146e	-2.532497
217	0xbfda5d8e	-1.7059801
218	0x403d0df4	2.9539766
219	0xc123d302	-10.239016
220	0x40855573	4.166681
221	0xc03eb2aa	-2.9796548
222	0x3ec2832c	0.379907
223	0x3ddfedfa	0.10934062
224	0xbef5fa69	-0.4804261
225	0x41049c04	8.28809
226	0x4054911f	3.3213575
227	0xc081418b	-4.039251
228	0xc0524d87	-3.285982
229	0x4032e296	2.7950797
230	0xbd4b6a28	-0.049661785
231	0xbea18323	-0.31545362
232	0x4013cce3	2.3093803
233	0x3ecd12c1	0.4005337
234	0x3f5b887b	0.8575513
235	0x4007ce44	2.1219645
236	0xc01d6602	-2.459351
237	0x40f2ad44	7.5836506
238	0xbff729bd	-1.9309613
239	0xc114c3f4	-9.29784
240	0xc10928db	-8.5724745
241	0x4011acb0	2.276165
242	0xbdbf208d	-0.093323804
243	0x3f78844e	0.9707688
244	0x40494075	3.1445591
245	0xc11b1bf1	-9.694322
246	0x40cb6865	6.3564935
247	0x3fddf272	1.7339613
248	0xbfaf663e	-1.3703077
249	0xc0144b2a	-2.3170877
250	0x4082f377	4.09222
251	0x3f884b82	1.0648043
252	0x400dab5a	2.2135835
253	0x4064f5ad	3.5774949
254	0x3fde1533	1.735022
255	0x3feaf85f	1.8357047

l2.bias f4 [64]
0	0xc0a82492	-5.254464
1	0xc02a583f	-2.661636
2	0xc1067cbd	-8.405454
3	0xc0f7861e	-7.7351217
4	0xc0ac078c	-5.3759212
5	0xc11a4eef	-9.644271
6	0xc0d4c6de	-6.649276
7	0xbd0d29c6	-0.034463666
8	0xc11a3a42	-9.639223
9	0xc039aeb2	-2.9012876
10	0xc0c75539	-6.229153
11	0xc0f3e4c4	-7.6216755
12	0xc09257fa	-4.5732393
13	0x3da03c7c	0.078240365
14	0xc1112a09	-9.0727625
15	0xc10880c0	-8.531433
16	0x4005f814	2.0932665
17	0xc0db94cd	-6.861914
18	0xbc948d3a	-0.018133748
19	0x40368490	2.851841
20	0x4048277e	3.1274104
21	0xc0f1b473	-7.5532775
22	0xc044c3c8	-3.0744495
23	0xc09224b7	-4.566982
24	0xc037a4cf	-2.869434
25	0x3cb4d3d4	0.022073664
26	0xc0ea3215	-7.3186135
27	0xc0a2cec4	-5.08774
28	0xc0da39f4	-6.8195744
29	0xc0db8a38	-6.8606224
30	0xc109b2a5	-8.606114
31	0xc0e75449	-7.2290387
32	0x3d11554a	0.03548173
33	0xc0f5142a	-7.6587114
34	0xbfd0c20e	-1.6309221
35	0xc0e60611	-7.1882405
36	0xbfde8b10	-1.7386189
37	0x3f8f7ae8	1.1209383
38	0xc1101a9e	-9.006498
39	0xbe10dac2	-0.1414595
40	0x40135cac	2.3025312
41	0xc11adb3c	-9.678524
42	0xc0ba3479	-5.8189054
43	0xc108fa8a	-8.561167
44	0xc0fe1a5d	-7.940718
45	0xc04ecc2f	-3.2312124
46	0xc1114237	-9.078666
47	0xc0d8e5f7	-6.778072
48	0xc0ef74ca	-7.4830065
49	0xc1052b5d	-8.323087
50	0xc0feede1	-7.966538
51	0xc06b1b47	-3.6735399
52	0xc0f64287	-7.695621
53	0xc0d297e8	-6.5810432
54	0x4052f3e2	3.2961354
55	0xc039d07e	-2.9033504
56	0xc0419439	-3.0246718
57	0xbd974438	-0.073860586
58	0xbdd06cc2	-0.10176994
59	0xbf37891f	-0.71693605
60	0x3f679417	0.9046034
61	0xc0be82fa	-5.9534883
62	0x3d9e9850	0.07743895
63	0xc10f1ec1	-8.945008

l3.weight f4 [8, 64]
0	0xc0941566	-4.627612
1	0xbfdd4921	-1.7287942
2	0xc0f90ddc	-7.782942
3	0xc0983fb6	-4.757777
4	0xc0c759ba	-6.229703
5	0xc10ccfc6	-8.800726
6	0xc02a54d2	-2.661427
7	0x3db47081	0.08810521
8	0xc0cdad5f	-6.4274135
9	0xbf25150d	-0.64485246
10	0xc12ce751	-10.806474
11	0xc0e8707b	-7.2637305
12	0xbf1876d8	-0.5955634
13	0x3d6e83a1	0.058231
14	0xc10a55fe	-8.645994
15	0xc0fc630a	-7.8870897
16	0x402fd822	2.7475667
17	0xc0c8ead4	-6.2786655
18	0xbc312000	-0.010810852
19	0x403d0563	2.9534538
20	0x4053f8b0	3.3120537
21	0xc0f7ae82	-7.740052
22	0xbf04182e	-0.51599395
23	0xbe99f62c	-0.30070627
24	0xc037e6c8	-2.8734608
25	0x3db1411b	0.08654996
26	0xc0aad004	-5.3378925
27	0xc02883bf	-2.6330411
28	0xc0abd5a0	-5.3698273
29	0xc07df9af	-3.9683645
30	0xc0a3cb1f	-5.118545
31	0xc10fbf8a	-8.984262
32	0x3cd97870	0.026546687
33	0xc1368d67	-11.409522
34	0xbff53f53	-1.915995
35	0xc09ca091	-4.8946004
36	0xbffd75ba	-1.9801552
37	0x3ef1dd5d	0.472392
38	0xc0e56e3a	-7.1697054
39	0xbdfb9fc9	-0.12286336
40	0x4033224f	2.798969
41	0xc0fcab32	-7.895898
42	0xc0259a23	-2.5875328
43	0xc0f6f8cf	-7.717872
44	0xc0dcf1c0	-6.9045105
45	0xbf9f76ce	-1.2458131
46	0xc1216af8	-10.088615
47	0xc0915538	-4.5416527
48	0xc08f6f76	-4.482356
49	0xc0f87112	-7.7638025
50	0xc0ee59d5	-7.448466
51	0xc04e5cc9	-3.2244132
52	0xc0d3acb2	-6.614831
53	0x3f13da73	0.577552
54	0x403d1fa2	2.9550557
55	0xbed18927	-0.4092495
56	0xbf5f5854	-0.87244153
57	0x3ce824c0	0.028337836
58	0xbe00f2de	-0.12592646
59	0xc0011dd1	-2.0174448
60	0x40853648	4.162876
61	0xc0576e26	-3.366098
62	0x3ddc6245	0.10760931
63	0xc100cafb	-8.049556
64	0xc07d438a	-3.9572473
65	0xbfa1a60a	-1.2628796
66	0xc0fd9ff9	-7.925778
67	0xc0a28b43	-5.0794997
68	0xc0895254	-4.2913
69	0xc0db2d6d	-6.849295
70	0xc0305211	-2.755009
71	0x3daffc5d	0.08593056
72	0xc0e536a0	-7.162918
73	0xbfad4c02	-1.3538821
74	0xc1238402	-10.219728
75	0xc0bd9afc	-5.925169
76	0xbea46477	-0.321079
77	0xbd7a61e1	-0.0611285
78	0xc1037c09	-8.217782
79	0xc10d2757	-8.822104
80	0x4006662d	2.0999863
81	0xc0e49169	-7.1427503
82	0x3d82b90a	0.0638295
83	0x40292891	2.643101
84	0x402f6f51	2.7411692
85	0xc0f4c59c	-7.649122
86	0xbf8ab6d5	-1.0837046
87	0xbf2259a0	-0.63418007
88	0xc040ff29	-3.0155737
89	0xbdba485e	-0.09095834
90	0xc0dbc114	-6.867319
91	0xc0438cae	-3.0554614
92	0xc0a005fc	-5.0007305
93	0xc08e33aa	-4.4438066
94	0xc0abb8c9	-5.366307
95	0xc105e9e1	-8.369599
96	0x3b0cc084	0.0021477053
97	0xc12a22c4	-10.633488
98	0xbf8f0074	-1.1172013
99	0xc068dfd7	-3.638662
100	0xbf9e480f	-1.236574
101	0x3fbaffff	1.4609374
102	0xc0f17bb5	-7.546351
103	0x3da53be7	0.08068066
104	0x402e7466	2.7258544
105	0xc0ffff74	-7.9999332
106	0xc01fcb4f	-2.496784
107	0xc0d730eb	-6.7247214
108	0xc0f4dff9	-7.6523404
109	0xc0586182	-3.3809514
110	0xc10e8184	-8.90662
111	0xc0714d36	-3.7703376
112	0xc090b041	-4.5215154
113	0xc0e642f9	-7.1956754
114	0xc1010933	-8.064746
115	0xc0750319	-3.828314
116	0xc0c7ad89	-6.2399335
117	0xc0f59550	-7.6744766
118	0x402040fe	2.5039668
119	0xbf4bdeed	-0.7963703
120	0xc02017c4	-2.5014505
121	0x3dfab2b0	0.12241113
122	0x3dcccb9a	0.099997714
123	0xbf317f7c	-0.6933515
124	0x4087ea85	4.247378
125	0xc09003c6	-4.5004606
126	0xbd5f8b10	-0.05457598
127	0xc10048e4	-8.017796
128	0xc0a8b364	-5.2718983
129	0x3f03f07e	0.51538837
130	0xc110d718	-9.052513
131	0xc0a2225f	-5.0666957
132	0xc08f0c95	-4.470286
133	0xc0d20edc	-6.564314
134	0xc0265fb4	-2.5995913
135	0xbddfddd6	-0.10930984
136	0xc0de61d5	-6.9494424
137	0xbff4e674	-1.9132829
138	0xc0ff89e7	-7.985584
139	0xc0bb90f7	-5.861446
140	0xbfb5a147	-1.4189843
141	0x3c7470aa	0.014919439
142	0xc0b9ea58	-5.8098564
143	0xc1143c1f	-9.264678
144	0x405f79e3	3.4918144
145	0xc0c30a21	-6.0949864
146	0xbdd694de	-0.10477613
147	0x401d7b72	2.4606595
148	0x4037e5a4	2.8733912
149	0xc0fa115f	-7.8146205
150	0xbfea7f3e	-1.8320081
151	0xbff34d39	-1.9007941
152	0xc08233e2	-4.0688334
153	0xbde7e623	-0.11323192
154	0xc0cd2737	-6.411037
155	0xc0296c09	-2.647219
156	0xc0c4094e	-6.126136
157	0xc05f7d5b	-3.492026
158	0xc0b9dee7	-5.8084598
159	0xc0e5f54e	-7.1861944
160	0xbd0a4864	-0.033760443
161	0xc1038c39	-8.221734
162	0xbfad22f6	-1.3526294
163	0xc018b3fd	-2.3859856
164	0xbf99c394	-1.2012811
165	0x404a5028	3.1611423
166	0xc10584fe	-8.344969
167	0x3dcfd7a7	0.10148554
168	0x40562058	3.345724
169	0xc0e967ad	-7.2939057
170	0xc0731cf5	-3.7986424
171	0xc0a89207	-5.2678256
172	0xc0eb0f70	-7.3456345
173	0xc060d5c8	-3.5130482
174	0xc1056e32	-8.339403
175	0xbfc1296d	-1.5090767
176	0xc069a38d	-3.6506073
177	0xc0cc0b39	-6.37637
178	0xc0ff37dc	-7.975569
179	0xc07c6f92	-3.9443097
180	0xc0d157e7	-6.5419803
181	0xc11723e2	-9.44626
182	0x40281666	2.626367
183	0xbfb36141	-1.4014055
184	0xbf3ce7e6	-0.7379135
185	0x3d9bc244	0.076054126
186	0x3da8eef6	0.08248703
187	0x3f28132d	0.6565426
188	0x408bc850	4.368202
189	0xc055d21a	-3.3409486
190	0x3d947095	0.07248036
191	0xc0e4bb97	-7.147899
192	0xc095f6b5	-4.6863656
193	0xbf0a1000	-0.53930664
194	0xc0fb737f	-7.8578486
195	0xc096ad3c	-4.708647
196	0xc0a830fb	-5.255979
197	0xc0e1bf55	-7.054606
198	0xc033d049	-2.8095877
199	0xbccf7b1c	-0.025327258
200	0xc0d9c3b9	-6.805142
201	0xbf81dece	-1.014612
202	0xc11b8045	-9.718816
203	0xc0b03ffb	-5.50781
204	0xbf5ac8f0	-0.85462856
205	0xbdc58a5a	-0.09645529
206	0xc0eee25e	-7.4651327
207	0xc102dff9	-8.179681
208	0x4038915f	2.8838727
209	0xc0b63c1c	-5.6948376
210	0x3db410b8	0.08792251
211	0x4016f5d0	2.3587532
212	0x4055a6b0	3.3382988
213	0xc0fffdcc	-7.999731
214	0xbfa11b53	-1.2586464
215	0xbf8f6654	-1.1203103
216	0xc04b2951	-3.1743968
217	0x3ca5e86e	0.020252433
218	0xc0bdb222	-5.9279947
219	0xc0396f23	-2.8974082
220	0xc0a2b0d0	-5.0840836
221	0xc06eccd2	-3.7312512
222	0xc09ee5a4	-4.9655323
223	0xc1009d81	-8.038453
224	0x3cda462a	0.026644785
225	0xc12fd49a	-10.989405
226	0xbfc0d85d	-1.5066029
227	0xc06a6be2	-3.6628346
228	0xbfa1706c	-1.2612433
229	0x3fe6bf4c	1.8027129
230	0xc0fa0713	-7.8133636
231	0x3dabd011	0.08389295
232	0x404e59ce	3.2242312
233	0xc1010f5b	-8.066249
234	0xc00ff3a9	-2.2492468
235	0xc0e580c6	-7.1719694
236	0xc0d307a2	-6.5946817
237	0xc05758e1	-3.3647997
238	0xc103b46c	-8.231548
239	0xc042df89	-3.0448935
240	0xc0803099	-4.0059323
241	0xc0dcd743	-6.901277
242	0xc0fe32f2	-7.943719
243	0xc06a23ae	-3.6584277
244	0xc0c5c95c	-6.18083
245	0xc0f35776	-7.6044264
246	0x4037330d	2.862491
247	0xbfd953bb	-1.6978678
248	0xbf867941	-1.0505754
249	0xbd3c5f80	-0.045989513
250	0xb952ad80	-0.00020091794
251	0xbede0a12	-0.43367058
252	0x406ac0ac	3.6680098
253	0xc06fcea2	-3.7469869
254	0xbb30f1cf	-0.0026999598
255	0xc0f2c850	-7.586952

l3.bias f4 [8]
0	0xc08a2118	-4.31654
1	0x418005c1	16.00281
2	0x41062984	8.385136
3	0x40a874a6	5.2642393
4	0x408953a3	4.2914596
5	0x40012874	2.018094
6	0xbf8f3446	-1.1187828
7	0x4130b28c	11.043591
